<?xml version="1.0" ?>
<net name="torch-jit-export" version="11">
	<layers>
		<layer id="147" name="image" type="Parameter" version="opset1">
			<data shape="1,3,416,416" element_type="f32"/>
			<rt_info>
				<attribute name="old_api_map_element_type" version="0" value="f16"/>
			</rt_info>
			<output>
				<port id="0" precision="FP32" names="image">
					<dim>1</dim>
					<dim>3</dim>
					<dim>416</dim>
					<dim>416</dim>
					<rt_info>
						<attribute name="layout" version="0" layout="[N,C,H,W]"/>
					</rt_info>
				</port>
			</output>
		</layer>
		<layer id="0" name="1717271735748" type="Const" version="opset1">
			<data offset="0" size="8" shape="1" element_type="i64"/>
			<output>
				<port id="0" precision="I64" names="1717">
					<dim>1</dim>
				</port>
			</output>
		</layer>
		<layer id="1" name="Constant_7382223235085" type="Const" version="opset1">
			<data offset="8" size="2" shape="" element_type="f16"/>
			<output>
				<port id="0" precision="FP16"/>
			</output>
		</layer>
		<layer id="2" name="Constant_7382223220419/restored_convert" type="Convert" version="opset1">
			<data destination_type="f32"/>
			<rt_info>
				<attribute name="decompression" version="0"/>
			</rt_info>
			<input>
				<port id="0"/>
			</input>
			<output>
				<port id="1" precision="FP32"/>
			</output>
		</layer>
		<layer id="3" name="106001060437482" type="Const" version="opset1">
			<data offset="10" size="4" shape="" element_type="f32"/>
			<output>
				<port id="0" precision="FP32"/>
			</output>
		</layer>
		<layer id="4" name="106011060535490" type="Const" version="opset1">
			<data offset="14" size="4" shape="" element_type="f32"/>
			<output>
				<port id="0" precision="FP32"/>
			</output>
		</layer>
		<layer id="5" name="106021060636900" type="Const" version="opset1">
			<data offset="10" size="4" shape="" element_type="f32"/>
			<output>
				<port id="0" precision="FP32"/>
			</output>
		</layer>
		<layer id="6" name="106031060738658" type="Const" version="opset1">
			<data offset="14" size="4" shape="" element_type="f32"/>
			<output>
				<port id="0" precision="FP32"/>
			</output>
		</layer>
		<layer id="7" name="Constant_3024269436477" type="Const" version="opset1">
			<data offset="18" size="16" shape="2" element_type="i64"/>
			<output>
				<port id="0" precision="I64">
					<dim>2</dim>
				</port>
			</output>
		</layer>
		<layer id="8" name="8670867434140" type="Const" version="opset1">
			<data offset="34" size="4" shape="" element_type="f32"/>
			<output>
				<port id="0" precision="FP32"/>
			</output>
		</layer>
		<layer id="9" name="8671867538019" type="Const" version="opset1">
			<data offset="38" size="4" shape="" element_type="f32"/>
			<output>
				<port id="0" precision="FP32"/>
			</output>
		</layer>
		<layer id="10" name="8672867636138" type="Const" version="opset1">
			<data offset="34" size="4" shape="" element_type="f32"/>
			<output>
				<port id="0" precision="FP32"/>
			</output>
		</layer>
		<layer id="11" name="8673867736012" type="Const" version="opset1">
			<data offset="38" size="4" shape="" element_type="f32"/>
			<output>
				<port id="0" precision="FP32"/>
			</output>
		</layer>
		<layer id="12" name="6123612536387" type="Const" version="opset1">
			<data offset="42" size="128" shape="1,32,1,1" element_type="f32"/>
			<output>
				<port id="0" precision="FP32">
					<dim>1</dim>
					<dim>32</dim>
					<dim>1</dim>
					<dim>1</dim>
				</port>
			</output>
		</layer>
		<layer id="13" name="8010801436492" type="Const" version="opset1">
			<data offset="10" size="4" shape="" element_type="f32"/>
			<output>
				<port id="0" precision="FP32"/>
			</output>
		</layer>
		<layer id="14" name="8011801536690" type="Const" version="opset1">
			<data offset="170" size="4" shape="" element_type="f32"/>
			<output>
				<port id="0" precision="FP32"/>
			</output>
		</layer>
		<layer id="15" name="8012801635253" type="Const" version="opset1">
			<data offset="10" size="4" shape="" element_type="f32"/>
			<output>
				<port id="0" precision="FP32"/>
			</output>
		</layer>
		<layer id="16" name="8013801735634" type="Const" version="opset1">
			<data offset="170" size="4" shape="" element_type="f32"/>
			<output>
				<port id="0" precision="FP32"/>
			</output>
		</layer>
		<layer id="17" name="Constant_2927268238163" type="Const" version="opset1">
			<data offset="18" size="16" shape="2" element_type="i64"/>
			<output>
				<port id="0" precision="I64">
					<dim>2</dim>
				</port>
			</output>
		</layer>
		<layer id="18" name="105201052435703" type="Const" version="opset1">
			<data offset="174" size="4" shape="" element_type="f32"/>
			<output>
				<port id="0" precision="FP32"/>
			</output>
		</layer>
		<layer id="19" name="105211052538676" type="Const" version="opset1">
			<data offset="178" size="4" shape="" element_type="f32"/>
			<output>
				<port id="0" precision="FP32"/>
			</output>
		</layer>
		<layer id="20" name="105221052636540" type="Const" version="opset1">
			<data offset="174" size="4" shape="" element_type="f32"/>
			<output>
				<port id="0" precision="FP32"/>
			</output>
		</layer>
		<layer id="21" name="105231052735388" type="Const" version="opset1">
			<data offset="178" size="4" shape="" element_type="f32"/>
			<output>
				<port id="0" precision="FP32"/>
			</output>
		</layer>
		<layer id="22" name="6119612137812" type="Const" version="opset1">
			<data offset="42" size="128" shape="1,32,1,1" element_type="f32"/>
			<output>
				<port id="0" precision="FP32">
					<dim>1</dim>
					<dim>32</dim>
					<dim>1</dim>
					<dim>1</dim>
				</port>
			</output>
		</layer>
		<layer id="23" name="8260826435541" type="Const" version="opset1">
			<data offset="10" size="4" shape="" element_type="f32"/>
			<output>
				<port id="0" precision="FP32"/>
			</output>
		</layer>
		<layer id="24" name="8261826536534" type="Const" version="opset1">
			<data offset="182" size="4" shape="" element_type="f32"/>
			<output>
				<port id="0" precision="FP32"/>
			</output>
		</layer>
		<layer id="25" name="8262826638478" type="Const" version="opset1">
			<data offset="10" size="4" shape="" element_type="f32"/>
			<output>
				<port id="0" precision="FP32"/>
			</output>
		</layer>
		<layer id="26" name="8263826735139" type="Const" version="opset1">
			<data offset="182" size="4" shape="" element_type="f32"/>
			<output>
				<port id="0" precision="FP32"/>
			</output>
		</layer>
		<layer id="27" name="Constant_2830267036162" type="Const" version="opset1">
			<data offset="18" size="16" shape="2" element_type="i64"/>
			<output>
				<port id="0" precision="I64">
					<dim>2</dim>
				</port>
			</output>
		</layer>
		<layer id="28" name="8210821436372" type="Const" version="opset1">
			<data offset="186" size="4" shape="" element_type="f32"/>
			<output>
				<port id="0" precision="FP32"/>
			</output>
		</layer>
		<layer id="29" name="8211821538262" type="Const" version="opset1">
			<data offset="190" size="4" shape="" element_type="f32"/>
			<output>
				<port id="0" precision="FP32"/>
			</output>
		</layer>
		<layer id="30" name="8212821636252" type="Const" version="opset1">
			<data offset="186" size="4" shape="" element_type="f32"/>
			<output>
				<port id="0" precision="FP32"/>
			</output>
		</layer>
		<layer id="31" name="8213821736297" type="Const" version="opset1">
			<data offset="190" size="4" shape="" element_type="f32"/>
			<output>
				<port id="0" precision="FP32"/>
			</output>
		</layer>
		<layer id="32" name="6115611734128" type="Const" version="opset1">
			<data offset="42" size="128" shape="1,32,1,1" element_type="f32"/>
			<output>
				<port id="0" precision="FP32">
					<dim>1</dim>
					<dim>32</dim>
					<dim>1</dim>
					<dim>1</dim>
				</port>
			</output>
		</layer>
		<layer id="33" name="8730873434482" type="Const" version="opset1">
			<data offset="10" size="4" shape="" element_type="f32"/>
			<output>
				<port id="0" precision="FP32"/>
			</output>
		</layer>
		<layer id="34" name="8731873538199" type="Const" version="opset1">
			<data offset="194" size="4" shape="" element_type="f32"/>
			<output>
				<port id="0" precision="FP32"/>
			</output>
		</layer>
		<layer id="35" name="8732873634704" type="Const" version="opset1">
			<data offset="10" size="4" shape="" element_type="f32"/>
			<output>
				<port id="0" precision="FP32"/>
			</output>
		</layer>
		<layer id="36" name="8733873734776" type="Const" version="opset1">
			<data offset="194" size="4" shape="" element_type="f32"/>
			<output>
				<port id="0" precision="FP32"/>
			</output>
		</layer>
		<layer id="37" name="Constant_2733265834017" type="Const" version="opset1">
			<data offset="18" size="16" shape="2" element_type="i64"/>
			<output>
				<port id="0" precision="I64">
					<dim>2</dim>
				</port>
			</output>
		</layer>
		<layer id="38" name="8640864438469" type="Const" version="opset1">
			<data offset="198" size="4" shape="" element_type="f32"/>
			<output>
				<port id="0" precision="FP32"/>
			</output>
		</layer>
		<layer id="39" name="8641864537908" type="Const" version="opset1">
			<data offset="202" size="4" shape="" element_type="f32"/>
			<output>
				<port id="0" precision="FP32"/>
			</output>
		</layer>
		<layer id="40" name="8642864634989" type="Const" version="opset1">
			<data offset="198" size="4" shape="" element_type="f32"/>
			<output>
				<port id="0" precision="FP32"/>
			</output>
		</layer>
		<layer id="41" name="8643864736123" type="Const" version="opset1">
			<data offset="202" size="4" shape="" element_type="f32"/>
			<output>
				<port id="0" precision="FP32"/>
			</output>
		</layer>
		<layer id="42" name="6111611337158" type="Const" version="opset1">
			<data offset="42" size="128" shape="1,32,1,1" element_type="f32"/>
			<output>
				<port id="0" precision="FP32">
					<dim>1</dim>
					<dim>32</dim>
					<dim>1</dim>
					<dim>1</dim>
				</port>
			</output>
		</layer>
		<layer id="43" name="9200920435697" type="Const" version="opset1">
			<data offset="206" size="4" shape="" element_type="f32"/>
			<output>
				<port id="0" precision="FP32"/>
			</output>
		</layer>
		<layer id="44" name="9201920536504" type="Const" version="opset1">
			<data offset="210" size="4" shape="" element_type="f32"/>
			<output>
				<port id="0" precision="FP32"/>
			</output>
		</layer>
		<layer id="45" name="9202920637410" type="Const" version="opset1">
			<data offset="206" size="4" shape="" element_type="f32"/>
			<output>
				<port id="0" precision="FP32"/>
			</output>
		</layer>
		<layer id="46" name="9203920735517" type="Const" version="opset1">
			<data offset="210" size="4" shape="" element_type="f32"/>
			<output>
				<port id="0" precision="FP32"/>
			</output>
		</layer>
		<layer id="47" name="104001040434320" type="Const" version="opset1">
			<data offset="214" size="4" shape="" element_type="f32"/>
			<output>
				<port id="0" precision="FP32"/>
			</output>
		</layer>
		<layer id="48" name="104011040536156" type="Const" version="opset1">
			<data offset="218" size="4" shape="" element_type="f32"/>
			<output>
				<port id="0" precision="FP32"/>
			</output>
		</layer>
		<layer id="49" name="104021040636834" type="Const" version="opset1">
			<data offset="214" size="4" shape="" element_type="f32"/>
			<output>
				<port id="0" precision="FP32"/>
			</output>
		</layer>
		<layer id="50" name="104031040734050" type="Const" version="opset1">
			<data offset="218" size="4" shape="" element_type="f32"/>
			<output>
				<port id="0" precision="FP32"/>
			</output>
		</layer>
		<layer id="51" name="102401024436651" type="Const" version="opset1">
			<data offset="222" size="4" shape="" element_type="f32"/>
			<output>
				<port id="0" precision="FP32"/>
			</output>
		</layer>
		<layer id="52" name="102411024538496" type="Const" version="opset1">
			<data offset="226" size="4" shape="" element_type="f32"/>
			<output>
				<port id="0" precision="FP32"/>
			</output>
		</layer>
		<layer id="53" name="102421024636144" type="Const" version="opset1">
			<data offset="222" size="4" shape="" element_type="f32"/>
			<output>
				<port id="0" precision="FP32"/>
			</output>
		</layer>
		<layer id="54" name="102431024737170" type="Const" version="opset1">
			<data offset="226" size="4" shape="" element_type="f32"/>
			<output>
				<port id="0" precision="FP32"/>
			</output>
		</layer>
		<layer id="55" name="9940994437437" type="Const" version="opset1">
			<data offset="230" size="4" shape="" element_type="f32"/>
			<output>
				<port id="0" precision="FP32"/>
			</output>
		</layer>
		<layer id="56" name="9941994537407" type="Const" version="opset1">
			<data offset="234" size="4" shape="" element_type="f32"/>
			<output>
				<port id="0" precision="FP32"/>
			</output>
		</layer>
		<layer id="57" name="9942994636717" type="Const" version="opset1">
			<data offset="230" size="4" shape="" element_type="f32"/>
			<output>
				<port id="0" precision="FP32"/>
			</output>
		</layer>
		<layer id="58" name="9943994736729" type="Const" version="opset1">
			<data offset="234" size="4" shape="" element_type="f32"/>
			<output>
				<port id="0" precision="FP32"/>
			</output>
		</layer>
		<layer id="59" name="9820982435298" type="Const" version="opset1">
			<data offset="238" size="4" shape="" element_type="f32"/>
			<output>
				<port id="0" precision="FP32"/>
			</output>
		</layer>
		<layer id="60" name="9821982534461" type="Const" version="opset1">
			<data offset="242" size="4" shape="" element_type="f32"/>
			<output>
				<port id="0" precision="FP32"/>
			</output>
		</layer>
		<layer id="61" name="9822982638574" type="Const" version="opset1">
			<data offset="238" size="4" shape="" element_type="f32"/>
			<output>
				<port id="0" precision="FP32"/>
			</output>
		</layer>
		<layer id="62" name="9823982735550" type="Const" version="opset1">
			<data offset="242" size="4" shape="" element_type="f32"/>
			<output>
				<port id="0" precision="FP32"/>
			</output>
		</layer>
		<layer id="63" name="104801048434800" type="Const" version="opset1">
			<data offset="10" size="4" shape="" element_type="f32"/>
			<output>
				<port id="0" precision="FP32"/>
			</output>
		</layer>
		<layer id="64" name="104811048537689" type="Const" version="opset1">
			<data offset="246" size="4" shape="" element_type="f32"/>
			<output>
				<port id="0" precision="FP32"/>
			</output>
		</layer>
		<layer id="65" name="104821048637539" type="Const" version="opset1">
			<data offset="10" size="4" shape="" element_type="f32"/>
			<output>
				<port id="0" precision="FP32"/>
			</output>
		</layer>
		<layer id="66" name="104831048738481" type="Const" version="opset1">
			<data offset="246" size="4" shape="" element_type="f32"/>
			<output>
				<port id="0" precision="FP32"/>
			</output>
		</layer>
		<layer id="67" name="101001010434833" type="Const" version="opset1">
			<data offset="250" size="768" shape="1,192,1,1" element_type="f32"/>
			<output>
				<port id="0" precision="FP32">
					<dim>1</dim>
					<dim>192</dim>
					<dim>1</dim>
					<dim>1</dim>
				</port>
			</output>
		</layer>
		<layer id="68" name="101011010537959" type="Const" version="opset1">
			<data offset="1018" size="768" shape="1,192,1,1" element_type="f32"/>
			<output>
				<port id="0" precision="FP32">
					<dim>1</dim>
					<dim>192</dim>
					<dim>1</dim>
					<dim>1</dim>
				</port>
			</output>
		</layer>
		<layer id="69" name="101021010637683" type="Const" version="opset1">
			<data offset="250" size="768" shape="1,192,1,1" element_type="f32"/>
			<output>
				<port id="0" precision="FP32">
					<dim>1</dim>
					<dim>192</dim>
					<dim>1</dim>
					<dim>1</dim>
				</port>
			</output>
		</layer>
		<layer id="70" name="101031010737764" type="Const" version="opset1">
			<data offset="1018" size="768" shape="1,192,1,1" element_type="f32"/>
			<output>
				<port id="0" precision="FP32">
					<dim>1</dim>
					<dim>192</dim>
					<dim>1</dim>
					<dim>1</dim>
				</port>
			</output>
		</layer>
		<layer id="71" name="9830983437914" type="Const" version="opset1">
			<data offset="1786" size="4" shape="" element_type="f32"/>
			<output>
				<port id="0" precision="FP32"/>
			</output>
		</layer>
		<layer id="72" name="9831983535577" type="Const" version="opset1">
			<data offset="1790" size="4" shape="" element_type="f32"/>
			<output>
				<port id="0" precision="FP32"/>
			</output>
		</layer>
		<layer id="73" name="9832983638196" type="Const" version="opset1">
			<data offset="1786" size="4" shape="" element_type="f32"/>
			<output>
				<port id="0" precision="FP32"/>
			</output>
		</layer>
		<layer id="74" name="9833983735955" type="Const" version="opset1">
			<data offset="1790" size="4" shape="" element_type="f32"/>
			<output>
				<port id="0" precision="FP32"/>
			</output>
		</layer>
		<layer id="75" name="109001090437530" type="Const" version="opset1">
			<data offset="1794" size="4" shape="" element_type="f32"/>
			<output>
				<port id="0" precision="FP32"/>
			</output>
		</layer>
		<layer id="76" name="109011090534827" type="Const" version="opset1">
			<data offset="1798" size="4" shape="" element_type="f32"/>
			<output>
				<port id="0" precision="FP32"/>
			</output>
		</layer>
		<layer id="77" name="109021090635751" type="Const" version="opset1">
			<data offset="1794" size="4" shape="" element_type="f32"/>
			<output>
				<port id="0" precision="FP32"/>
			</output>
		</layer>
		<layer id="78" name="109031090737854" type="Const" version="opset1">
			<data offset="1798" size="4" shape="" element_type="f32"/>
			<output>
				<port id="0" precision="FP32"/>
			</output>
		</layer>
		<layer id="79" name="9490949436624" type="Const" version="opset1">
			<data offset="10" size="4" shape="" element_type="f32"/>
			<output>
				<port id="0" precision="FP32"/>
			</output>
		</layer>
		<layer id="80" name="9491949536378" type="Const" version="opset1">
			<data offset="1802" size="4" shape="" element_type="f32"/>
			<output>
				<port id="0" precision="FP32"/>
			</output>
		</layer>
		<layer id="81" name="9492949637353" type="Const" version="opset1">
			<data offset="10" size="4" shape="" element_type="f32"/>
			<output>
				<port id="0" precision="FP32"/>
			</output>
		</layer>
		<layer id="82" name="9493949736465" type="Const" version="opset1">
			<data offset="1802" size="4" shape="" element_type="f32"/>
			<output>
				<port id="0" precision="FP32"/>
			</output>
		</layer>
		<layer id="83" name="108301083438682" type="Const" version="opset1">
			<data offset="250" size="768" shape="1,192,1,1" element_type="f32"/>
			<output>
				<port id="0" precision="FP32">
					<dim>1</dim>
					<dim>192</dim>
					<dim>1</dim>
					<dim>1</dim>
				</port>
			</output>
		</layer>
		<layer id="84" name="108311083534830" type="Const" version="opset1">
			<data offset="1806" size="768" shape="1,192,1,1" element_type="f32"/>
			<output>
				<port id="0" precision="FP32">
					<dim>1</dim>
					<dim>192</dim>
					<dim>1</dim>
					<dim>1</dim>
				</port>
			</output>
		</layer>
		<layer id="85" name="108321083634443" type="Const" version="opset1">
			<data offset="250" size="768" shape="1,192,1,1" element_type="f32"/>
			<output>
				<port id="0" precision="FP32">
					<dim>1</dim>
					<dim>192</dim>
					<dim>1</dim>
					<dim>1</dim>
				</port>
			</output>
		</layer>
		<layer id="86" name="108331083737770" type="Const" version="opset1">
			<data offset="1806" size="768" shape="1,192,1,1" element_type="f32"/>
			<output>
				<port id="0" precision="FP32">
					<dim>1</dim>
					<dim>192</dim>
					<dim>1</dim>
					<dim>1</dim>
				</port>
			</output>
		</layer>
		<layer id="87" name="109101091438508" type="Const" version="opset1">
			<data offset="2574" size="4" shape="" element_type="f32"/>
			<output>
				<port id="0" precision="FP32"/>
			</output>
		</layer>
		<layer id="88" name="109111091537125" type="Const" version="opset1">
			<data offset="2578" size="4" shape="" element_type="f32"/>
			<output>
				<port id="0" precision="FP32"/>
			</output>
		</layer>
		<layer id="89" name="109121091636261" type="Const" version="opset1">
			<data offset="2574" size="4" shape="" element_type="f32"/>
			<output>
				<port id="0" precision="FP32"/>
			</output>
		</layer>
		<layer id="90" name="109131091738073" type="Const" version="opset1">
			<data offset="2578" size="4" shape="" element_type="f32"/>
			<output>
				<port id="0" precision="FP32"/>
			</output>
		</layer>
		<layer id="91" name="9580958436894" type="Const" version="opset1">
			<data offset="10" size="4" shape="" element_type="f32"/>
			<output>
				<port id="0" precision="FP32"/>
			</output>
		</layer>
		<layer id="92" name="9581958538565" type="Const" version="opset1">
			<data offset="2582" size="4" shape="" element_type="f32"/>
			<output>
				<port id="0" precision="FP32"/>
			</output>
		</layer>
		<layer id="93" name="9582958635907" type="Const" version="opset1">
			<data offset="10" size="4" shape="" element_type="f32"/>
			<output>
				<port id="0" precision="FP32"/>
			</output>
		</layer>
		<layer id="94" name="9583958736345" type="Const" version="opset1">
			<data offset="2582" size="4" shape="" element_type="f32"/>
			<output>
				<port id="0" precision="FP32"/>
			</output>
		</layer>
		<layer id="95" name="8330833435799" type="Const" version="opset1">
			<data offset="2586" size="576" shape="1,144,1,1" element_type="f32"/>
			<output>
				<port id="0" precision="FP32">
					<dim>1</dim>
					<dim>144</dim>
					<dim>1</dim>
					<dim>1</dim>
				</port>
			</output>
		</layer>
		<layer id="96" name="8331833535187" type="Const" version="opset1">
			<data offset="3162" size="576" shape="1,144,1,1" element_type="f32"/>
			<output>
				<port id="0" precision="FP32">
					<dim>1</dim>
					<dim>144</dim>
					<dim>1</dim>
					<dim>1</dim>
				</port>
			</output>
		</layer>
		<layer id="97" name="8332833635688" type="Const" version="opset1">
			<data offset="2586" size="576" shape="1,144,1,1" element_type="f32"/>
			<output>
				<port id="0" precision="FP32">
					<dim>1</dim>
					<dim>144</dim>
					<dim>1</dim>
					<dim>1</dim>
				</port>
			</output>
		</layer>
		<layer id="98" name="8333833737962" type="Const" version="opset1">
			<data offset="3162" size="576" shape="1,144,1,1" element_type="f32"/>
			<output>
				<port id="0" precision="FP32">
					<dim>1</dim>
					<dim>144</dim>
					<dim>1</dim>
					<dim>1</dim>
				</port>
			</output>
		</layer>
		<layer id="99" name="8410841438094" type="Const" version="opset1">
			<data offset="3738" size="4" shape="" element_type="f32"/>
			<output>
				<port id="0" precision="FP32"/>
			</output>
		</layer>
		<layer id="100" name="8411841537821" type="Const" version="opset1">
			<data offset="3742" size="4" shape="" element_type="f32"/>
			<output>
				<port id="0" precision="FP32"/>
			</output>
		</layer>
		<layer id="101" name="8412841638679" type="Const" version="opset1">
			<data offset="3738" size="4" shape="" element_type="f32"/>
			<output>
				<port id="0" precision="FP32"/>
			</output>
		</layer>
		<layer id="102" name="8413841735238" type="Const" version="opset1">
			<data offset="3742" size="4" shape="" element_type="f32"/>
			<output>
				<port id="0" precision="FP32"/>
			</output>
		</layer>
		<layer id="103" name="9660966434431" type="Const" version="opset1">
			<data offset="3746" size="4" shape="" element_type="f32"/>
			<output>
				<port id="0" precision="FP32"/>
			</output>
		</layer>
		<layer id="104" name="9661966536165" type="Const" version="opset1">
			<data offset="3750" size="4" shape="" element_type="f32"/>
			<output>
				<port id="0" precision="FP32"/>
			</output>
		</layer>
		<layer id="105" name="9662966634059" type="Const" version="opset1">
			<data offset="3746" size="4" shape="" element_type="f32"/>
			<output>
				<port id="0" precision="FP32"/>
			</output>
		</layer>
		<layer id="106" name="9663966735931" type="Const" version="opset1">
			<data offset="3750" size="4" shape="" element_type="f32"/>
			<output>
				<port id="0" precision="FP32"/>
			</output>
		</layer>
		<layer id="107" name="9430943435847" type="Const" version="opset1">
			<data offset="10" size="4" shape="" element_type="f32"/>
			<output>
				<port id="0" precision="FP32"/>
			</output>
		</layer>
		<layer id="108" name="9431943538499" type="Const" version="opset1">
			<data offset="3754" size="4" shape="" element_type="f32"/>
			<output>
				<port id="0" precision="FP32"/>
			</output>
		</layer>
		<layer id="109" name="9432943637752" type="Const" version="opset1">
			<data offset="10" size="4" shape="" element_type="f32"/>
			<output>
				<port id="0" precision="FP32"/>
			</output>
		</layer>
		<layer id="110" name="9433943736921" type="Const" version="opset1">
			<data offset="3754" size="4" shape="" element_type="f32"/>
			<output>
				<port id="0" precision="FP32"/>
			</output>
		</layer>
		<layer id="111" name="106901069438460" type="Const" version="opset1">
			<data offset="2586" size="576" shape="1,144,1,1" element_type="f32"/>
			<output>
				<port id="0" precision="FP32">
					<dim>1</dim>
					<dim>144</dim>
					<dim>1</dim>
					<dim>1</dim>
				</port>
			</output>
		</layer>
		<layer id="112" name="106911069534113" type="Const" version="opset1">
			<data offset="3758" size="576" shape="1,144,1,1" element_type="f32"/>
			<output>
				<port id="0" precision="FP32">
					<dim>1</dim>
					<dim>144</dim>
					<dim>1</dim>
					<dim>1</dim>
				</port>
			</output>
		</layer>
		<layer id="113" name="106921069638691" type="Const" version="opset1">
			<data offset="2586" size="576" shape="1,144,1,1" element_type="f32"/>
			<output>
				<port id="0" precision="FP32">
					<dim>1</dim>
					<dim>144</dim>
					<dim>1</dim>
					<dim>1</dim>
				</port>
			</output>
		</layer>
		<layer id="114" name="106931069734941" type="Const" version="opset1">
			<data offset="3758" size="576" shape="1,144,1,1" element_type="f32"/>
			<output>
				<port id="0" precision="FP32">
					<dim>1</dim>
					<dim>144</dim>
					<dim>1</dim>
					<dim>1</dim>
				</port>
			</output>
		</layer>
		<layer id="115" name="9670967438592" type="Const" version="opset1">
			<data offset="4334" size="4" shape="" element_type="f32"/>
			<output>
				<port id="0" precision="FP32"/>
			</output>
		</layer>
		<layer id="116" name="9671967535988" type="Const" version="opset1">
			<data offset="4338" size="4" shape="" element_type="f32"/>
			<output>
				<port id="0" precision="FP32"/>
			</output>
		</layer>
		<layer id="117" name="9672967635841" type="Const" version="opset1">
			<data offset="4334" size="4" shape="" element_type="f32"/>
			<output>
				<port id="0" precision="FP32"/>
			</output>
		</layer>
		<layer id="118" name="9673967734323" type="Const" version="opset1">
			<data offset="4338" size="4" shape="" element_type="f32"/>
			<output>
				<port id="0" precision="FP32"/>
			</output>
		</layer>
		<layer id="119" name="9260926434239" type="Const" version="opset1">
			<data offset="10" size="4" shape="" element_type="f32"/>
			<output>
				<port id="0" precision="FP32"/>
			</output>
		</layer>
		<layer id="120" name="9261926538373" type="Const" version="opset1">
			<data offset="4342" size="4" shape="" element_type="f32"/>
			<output>
				<port id="0" precision="FP32"/>
			</output>
		</layer>
		<layer id="121" name="9262926634134" type="Const" version="opset1">
			<data offset="10" size="4" shape="" element_type="f32"/>
			<output>
				<port id="0" precision="FP32"/>
			</output>
		</layer>
		<layer id="122" name="9263926735235" type="Const" version="opset1">
			<data offset="4342" size="4" shape="" element_type="f32"/>
			<output>
				<port id="0" precision="FP32"/>
			</output>
		</layer>
		<layer id="123" name="9220922435214" type="Const" version="opset1">
			<data offset="4346" size="384" shape="1,96,1,1" element_type="f32"/>
			<output>
				<port id="0" precision="FP32">
					<dim>1</dim>
					<dim>96</dim>
					<dim>1</dim>
					<dim>1</dim>
				</port>
			</output>
		</layer>
		<layer id="124" name="9221922537542" type="Const" version="opset1">
			<data offset="4730" size="384" shape="1,96,1,1" element_type="f32"/>
			<output>
				<port id="0" precision="FP32">
					<dim>1</dim>
					<dim>96</dim>
					<dim>1</dim>
					<dim>1</dim>
				</port>
			</output>
		</layer>
		<layer id="125" name="9222922635070" type="Const" version="opset1">
			<data offset="4346" size="384" shape="1,96,1,1" element_type="f32"/>
			<output>
				<port id="0" precision="FP32">
					<dim>1</dim>
					<dim>96</dim>
					<dim>1</dim>
					<dim>1</dim>
				</port>
			</output>
		</layer>
		<layer id="126" name="9223922735865" type="Const" version="opset1">
			<data offset="4730" size="384" shape="1,96,1,1" element_type="f32"/>
			<output>
				<port id="0" precision="FP32">
					<dim>1</dim>
					<dim>96</dim>
					<dim>1</dim>
					<dim>1</dim>
				</port>
			</output>
		</layer>
		<layer id="127" name="9970997437317" type="Const" version="opset1">
			<data offset="5114" size="4" shape="" element_type="f32"/>
			<output>
				<port id="0" precision="FP32"/>
			</output>
		</layer>
		<layer id="128" name="9971997537791" type="Const" version="opset1">
			<data offset="5118" size="4" shape="" element_type="f32"/>
			<output>
				<port id="0" precision="FP32"/>
			</output>
		</layer>
		<layer id="129" name="9972997636924" type="Const" version="opset1">
			<data offset="5114" size="4" shape="" element_type="f32"/>
			<output>
				<port id="0" precision="FP32"/>
			</output>
		</layer>
		<layer id="130" name="9973997738331" type="Const" version="opset1">
			<data offset="5118" size="4" shape="" element_type="f32"/>
			<output>
				<port id="0" precision="FP32"/>
			</output>
		</layer>
		<layer id="131" name="106401064436558" type="Const" version="opset1">
			<data offset="10" size="4" shape="" element_type="f32"/>
			<output>
				<port id="0" precision="FP32"/>
			</output>
		</layer>
		<layer id="132" name="106411064538628" type="Const" version="opset1">
			<data offset="5122" size="4" shape="" element_type="f32"/>
			<output>
				<port id="0" precision="FP32"/>
			</output>
		</layer>
		<layer id="133" name="106421064636732" type="Const" version="opset1">
			<data offset="10" size="4" shape="" element_type="f32"/>
			<output>
				<port id="0" precision="FP32"/>
			</output>
		</layer>
		<layer id="134" name="106431064737104" type="Const" version="opset1">
			<data offset="5122" size="4" shape="" element_type="f32"/>
			<output>
				<port id="0" precision="FP32"/>
			</output>
		</layer>
		<layer id="135" name="107201072437260" type="Const" version="opset1">
			<data offset="42" size="128" shape="1,32,1,1" element_type="f32"/>
			<output>
				<port id="0" precision="FP32">
					<dim>1</dim>
					<dim>32</dim>
					<dim>1</dim>
					<dim>1</dim>
				</port>
			</output>
		</layer>
		<layer id="136" name="107211072534041" type="Const" version="opset1">
			<data offset="5126" size="128" shape="1,32,1,1" element_type="f32"/>
			<output>
				<port id="0" precision="FP32">
					<dim>1</dim>
					<dim>32</dim>
					<dim>1</dim>
					<dim>1</dim>
				</port>
			</output>
		</layer>
		<layer id="137" name="107221072634884" type="Const" version="opset1">
			<data offset="42" size="128" shape="1,32,1,1" element_type="f32"/>
			<output>
				<port id="0" precision="FP32">
					<dim>1</dim>
					<dim>32</dim>
					<dim>1</dim>
					<dim>1</dim>
				</port>
			</output>
		</layer>
		<layer id="138" name="107231072734728" type="Const" version="opset1">
			<data offset="5126" size="128" shape="1,32,1,1" element_type="f32"/>
			<output>
				<port id="0" precision="FP32">
					<dim>1</dim>
					<dim>32</dim>
					<dim>1</dim>
					<dim>1</dim>
				</port>
			</output>
		</layer>
		<layer id="139" name="9680968438673" type="Const" version="opset1">
			<data offset="10" size="4" shape="" element_type="f32"/>
			<output>
				<port id="0" precision="FP32"/>
			</output>
		</layer>
		<layer id="140" name="9681968537329" type="Const" version="opset1">
			<data offset="5254" size="4" shape="" element_type="f32"/>
			<output>
				<port id="0" precision="FP32"/>
			</output>
		</layer>
		<layer id="141" name="9682968634308" type="Const" version="opset1">
			<data offset="10" size="4" shape="" element_type="f32"/>
			<output>
				<port id="0" precision="FP32"/>
			</output>
		</layer>
		<layer id="142" name="9683968735481" type="Const" version="opset1">
			<data offset="5254" size="4" shape="" element_type="f32"/>
			<output>
				<port id="0" precision="FP32"/>
			</output>
		</layer>
		<layer id="143" name="100401004435469" type="Const" version="opset1">
			<data offset="10" size="4" shape="" element_type="f32"/>
			<output>
				<port id="0" precision="FP32"/>
			</output>
		</layer>
		<layer id="144" name="100411004538016" type="Const" version="opset1">
			<data offset="5258" size="4" shape="" element_type="f32"/>
			<output>
				<port id="0" precision="FP32"/>
			</output>
		</layer>
		<layer id="145" name="100421004638130" type="Const" version="opset1">
			<data offset="10" size="4" shape="" element_type="f32"/>
			<output>
				<port id="0" precision="FP32"/>
			</output>
		</layer>
		<layer id="146" name="100431004737575" type="Const" version="opset1">
			<data offset="5258" size="4" shape="" element_type="f32"/>
			<output>
				<port id="0" precision="FP32"/>
			</output>
		</layer>
		<layer id="148" name="Constant_72100223436912" type="Const" version="opset1">
			<data offset="5262" size="2" shape="1,1,1,1" element_type="f16"/>
			<output>
				<port id="0" precision="FP16">
					<dim>1</dim>
					<dim>1</dim>
					<dim>1</dim>
					<dim>1</dim>
				</port>
			</output>
		</layer>
		<layer id="149" name="Constant_72100223420420/restored_convert" type="Convert" version="opset1">
			<data destination_type="f32"/>
			<rt_info>
				<attribute name="decompression" version="0"/>
			</rt_info>
			<input>
				<port id="0">
					<dim>1</dim>
					<dim>1</dim>
					<dim>1</dim>
					<dim>1</dim>
				</port>
			</input>
			<output>
				<port id="1" precision="FP32">
					<dim>1</dim>
					<dim>1</dim>
					<dim>1</dim>
					<dim>1</dim>
				</port>
			</output>
		</layer>
		<layer id="150" name="Divide_10600" type="Multiply" version="opset1">
			<data auto_broadcast="numpy"/>
			<rt_info>
				<attribute name="preprocessing" version="0"/>
			</rt_info>
			<input>
				<port id="0">
					<dim>1</dim>
					<dim>3</dim>
					<dim>416</dim>
					<dim>416</dim>
				</port>
				<port id="1">
					<dim>1</dim>
					<dim>1</dim>
					<dim>1</dim>
					<dim>1</dim>
				</port>
			</input>
			<output>
				<port id="2" precision="FP32">
					<dim>1</dim>
					<dim>3</dim>
					<dim>416</dim>
					<dim>416</dim>
				</port>
			</output>
		</layer>
		<layer id="151" name="Multiply_68149/fq_input_0" type="FakeQuantize" version="opset1">
			<data levels="256" auto_broadcast="numpy"/>
			<input>
				<port id="0">
					<dim>1</dim>
					<dim>3</dim>
					<dim>416</dim>
					<dim>416</dim>
				</port>
				<port id="1"/>
				<port id="2"/>
				<port id="3"/>
				<port id="4"/>
			</input>
			<output>
				<port id="5" precision="FP32">
					<dim>1</dim>
					<dim>3</dim>
					<dim>416</dim>
					<dim>416</dim>
				</port>
			</output>
		</layer>
		<layer id="152" name="Multiply_68149/fq_weights_1/scale2489037203" type="Const" version="opset1">
			<data offset="5264" size="128" shape="32,1,1,1" element_type="f32"/>
			<output>
				<port id="0" precision="FP32">
					<dim>32</dim>
					<dim>1</dim>
					<dim>1</dim>
					<dim>1</dim>
				</port>
			</output>
		</layer>
		<layer id="153" name="Gather_72099223720421/restored_convert/quantized2488236606" type="Const" version="opset1">
			<data offset="5392" size="864" shape="32,3,3,3" element_type="i8"/>
			<output>
				<port id="0" precision="I8">
					<dim>32</dim>
					<dim>3</dim>
					<dim>3</dim>
					<dim>3</dim>
				</port>
			</output>
		</layer>
		<layer id="154" name="Gather_72099223720421/restored_convert/quantized/to_f32" type="Convert" version="opset1">
			<data destination_type="f32"/>
			<input>
				<port id="0">
					<dim>32</dim>
					<dim>3</dim>
					<dim>3</dim>
					<dim>3</dim>
				</port>
			</input>
			<output>
				<port id="1" precision="FP32">
					<dim>32</dim>
					<dim>3</dim>
					<dim>3</dim>
					<dim>3</dim>
				</port>
			</output>
		</layer>
		<layer id="155" name="Multiply_68149/fq_weights_1/mulpiply_by_scale" type="Multiply" version="opset1">
			<data auto_broadcast="numpy"/>
			<input>
				<port id="0">
					<dim>32</dim>
					<dim>3</dim>
					<dim>3</dim>
					<dim>3</dim>
				</port>
				<port id="1">
					<dim>32</dim>
					<dim>1</dim>
					<dim>1</dim>
					<dim>1</dim>
				</port>
			</input>
			<output>
				<port id="2" precision="FP32">
					<dim>32</dim>
					<dim>3</dim>
					<dim>3</dim>
					<dim>3</dim>
				</port>
			</output>
		</layer>
		<layer id="156" name="Multiply_68149" type="Convolution" version="opset1">
			<data auto_pad="explicit" strides="2,2" dilations="1,1" pads_begin="1,1" pads_end="1,1"/>
			<rt_info>
				<attribute name="preprocessing" version="0"/>
			</rt_info>
			<input>
				<port id="0">
					<dim>1</dim>
					<dim>3</dim>
					<dim>416</dim>
					<dim>416</dim>
				</port>
				<port id="1">
					<dim>32</dim>
					<dim>3</dim>
					<dim>3</dim>
					<dim>3</dim>
				</port>
			</input>
			<output>
				<port id="2" precision="FP32">
					<dim>1</dim>
					<dim>32</dim>
					<dim>208</dim>
					<dim>208</dim>
				</port>
			</output>
		</layer>
		<layer id="157" name="Constant_68154224036513" type="Const" version="opset1">
			<data offset="6256" size="64" shape="1,32,1,1" element_type="f16"/>
			<output>
				<port id="0" precision="FP16">
					<dim>1</dim>
					<dim>32</dim>
					<dim>1</dim>
					<dim>1</dim>
				</port>
			</output>
		</layer>
		<layer id="158" name="Constant_68154224020422/restored_convert" type="Convert" version="opset1">
			<data destination_type="f32"/>
			<rt_info>
				<attribute name="decompression" version="0"/>
			</rt_info>
			<input>
				<port id="0">
					<dim>1</dim>
					<dim>32</dim>
					<dim>1</dim>
					<dim>1</dim>
				</port>
			</input>
			<output>
				<port id="1" precision="FP32">
					<dim>1</dim>
					<dim>32</dim>
					<dim>1</dim>
					<dim>1</dim>
				</port>
			</output>
		</layer>
		<layer id="159" name="BatchNormalization_7" type="Add" version="opset1">
			<data auto_broadcast="numpy"/>
			<input>
				<port id="0">
					<dim>1</dim>
					<dim>32</dim>
					<dim>208</dim>
					<dim>208</dim>
				</port>
				<port id="1">
					<dim>1</dim>
					<dim>32</dim>
					<dim>1</dim>
					<dim>1</dim>
				</port>
			</input>
			<output>
				<port id="2" precision="FP32" names="371">
					<dim>1</dim>
					<dim>32</dim>
					<dim>208</dim>
					<dim>208</dim>
				</port>
			</output>
		</layer>
		<layer id="160" name="Clip_8" type="Clamp" version="opset1">
			<data max="6" min="0"/>
			<input>
				<port id="0">
					<dim>1</dim>
					<dim>32</dim>
					<dim>208</dim>
					<dim>208</dim>
				</port>
			</input>
			<output>
				<port id="1" precision="FP32" names="372">
					<dim>1</dim>
					<dim>32</dim>
					<dim>208</dim>
					<dim>208</dim>
				</port>
			</output>
		</layer>
		<layer id="161" name="Multiply_68156/fq_input_0" type="FakeQuantize" version="opset1">
			<data levels="256" auto_broadcast="numpy"/>
			<input>
				<port id="0">
					<dim>1</dim>
					<dim>32</dim>
					<dim>208</dim>
					<dim>208</dim>
				</port>
				<port id="1"/>
				<port id="2"/>
				<port id="3"/>
				<port id="4"/>
			</input>
			<output>
				<port id="5" precision="FP32">
					<dim>1</dim>
					<dim>32</dim>
					<dim>208</dim>
					<dim>208</dim>
				</port>
			</output>
		</layer>
		<layer id="162" name="Multiply_68156/fq_weights_1/scale2423036450" type="Const" version="opset1">
			<data offset="6320" size="128" shape="32,1,1,1" element_type="f32"/>
			<output>
				<port id="0" precision="FP32">
					<dim>32</dim>
					<dim>1</dim>
					<dim>1</dim>
					<dim>1</dim>
				</port>
			</output>
		</layer>
		<layer id="163" name="Multiply_68549224420423/restored_convert/quantized2422234500" type="Const" version="opset1">
			<data offset="6448" size="1024" shape="32,32,1,1" element_type="i8"/>
			<output>
				<port id="0" precision="I8">
					<dim>32</dim>
					<dim>32</dim>
					<dim>1</dim>
					<dim>1</dim>
				</port>
			</output>
		</layer>
		<layer id="164" name="Multiply_68549224420423/restored_convert/quantized/to_f32" type="Convert" version="opset1">
			<data destination_type="f32"/>
			<input>
				<port id="0">
					<dim>32</dim>
					<dim>32</dim>
					<dim>1</dim>
					<dim>1</dim>
				</port>
			</input>
			<output>
				<port id="1" precision="FP32">
					<dim>32</dim>
					<dim>32</dim>
					<dim>1</dim>
					<dim>1</dim>
				</port>
			</output>
		</layer>
		<layer id="165" name="Multiply_68156/fq_weights_1/mulpiply_by_scale" type="Multiply" version="opset1">
			<data auto_broadcast="numpy"/>
			<input>
				<port id="0">
					<dim>32</dim>
					<dim>32</dim>
					<dim>1</dim>
					<dim>1</dim>
				</port>
				<port id="1">
					<dim>32</dim>
					<dim>1</dim>
					<dim>1</dim>
					<dim>1</dim>
				</port>
			</input>
			<output>
				<port id="2" precision="FP32">
					<dim>32</dim>
					<dim>32</dim>
					<dim>1</dim>
					<dim>1</dim>
				</port>
			</output>
		</layer>
		<layer id="166" name="Multiply_68156" type="Convolution" version="opset1">
			<data auto_pad="explicit" strides="1,1" dilations="1,1" pads_begin="0,0" pads_end="0,0"/>
			<input>
				<port id="0">
					<dim>1</dim>
					<dim>32</dim>
					<dim>208</dim>
					<dim>208</dim>
				</port>
				<port id="1">
					<dim>32</dim>
					<dim>32</dim>
					<dim>1</dim>
					<dim>1</dim>
				</port>
			</input>
			<output>
				<port id="2" precision="FP32">
					<dim>1</dim>
					<dim>32</dim>
					<dim>208</dim>
					<dim>208</dim>
				</port>
			</output>
		</layer>
		<layer id="167" name="Constant_68161224737224" type="Const" version="opset1">
			<data offset="7472" size="64" shape="1,32,1,1" element_type="f16"/>
			<output>
				<port id="0" precision="FP16">
					<dim>1</dim>
					<dim>32</dim>
					<dim>1</dim>
					<dim>1</dim>
				</port>
			</output>
		</layer>
		<layer id="168" name="Constant_68161224720424/restored_convert" type="Convert" version="opset1">
			<data destination_type="f32"/>
			<rt_info>
				<attribute name="decompression" version="0"/>
			</rt_info>
			<input>
				<port id="0">
					<dim>1</dim>
					<dim>32</dim>
					<dim>1</dim>
					<dim>1</dim>
				</port>
			</input>
			<output>
				<port id="1" precision="FP32">
					<dim>1</dim>
					<dim>32</dim>
					<dim>1</dim>
					<dim>1</dim>
				</port>
			</output>
		</layer>
		<layer id="169" name="BatchNormalization_10" type="Add" version="opset1">
			<data auto_broadcast="numpy"/>
			<input>
				<port id="0">
					<dim>1</dim>
					<dim>32</dim>
					<dim>208</dim>
					<dim>208</dim>
				</port>
				<port id="1">
					<dim>1</dim>
					<dim>32</dim>
					<dim>1</dim>
					<dim>1</dim>
				</port>
			</input>
			<output>
				<port id="2" precision="FP32" names="374">
					<dim>1</dim>
					<dim>32</dim>
					<dim>208</dim>
					<dim>208</dim>
				</port>
			</output>
		</layer>
		<layer id="170" name="Clip_11" type="Clamp" version="opset1">
			<data max="6" min="0"/>
			<input>
				<port id="0">
					<dim>1</dim>
					<dim>32</dim>
					<dim>208</dim>
					<dim>208</dim>
				</port>
			</input>
			<output>
				<port id="1" precision="FP32" names="375">
					<dim>1</dim>
					<dim>32</dim>
					<dim>208</dim>
					<dim>208</dim>
				</port>
			</output>
		</layer>
		<layer id="171" name="Multiply_68163/fq_input_0" type="FakeQuantize" version="opset1">
			<data levels="256" auto_broadcast="numpy"/>
			<input>
				<port id="0">
					<dim>1</dim>
					<dim>32</dim>
					<dim>208</dim>
					<dim>208</dim>
				</port>
				<port id="1">
					<dim>1</dim>
					<dim>32</dim>
					<dim>1</dim>
					<dim>1</dim>
				</port>
				<port id="2">
					<dim>1</dim>
					<dim>32</dim>
					<dim>1</dim>
					<dim>1</dim>
				</port>
				<port id="3">
					<dim>1</dim>
					<dim>32</dim>
					<dim>1</dim>
					<dim>1</dim>
				</port>
				<port id="4">
					<dim>1</dim>
					<dim>32</dim>
					<dim>1</dim>
					<dim>1</dim>
				</port>
			</input>
			<output>
				<port id="5" precision="FP32">
					<dim>1</dim>
					<dim>32</dim>
					<dim>208</dim>
					<dim>208</dim>
				</port>
			</output>
		</layer>
		<layer id="172" name="Multiply_68163/fq_weights_1/scale2462034812" type="Const" version="opset1">
			<data offset="7536" size="128" shape="32,1,1,1" element_type="f32"/>
			<output>
				<port id="0" precision="FP32">
					<dim>32</dim>
					<dim>1</dim>
					<dim>1</dim>
					<dim>1</dim>
				</port>
			</output>
		</layer>
		<layer id="173" name="Multiply_68558225120425/restored_convert/quantized2461235778" type="Const" version="opset1">
			<data offset="7664" size="288" shape="32,1,3,3" element_type="i8"/>
			<output>
				<port id="0" precision="I8">
					<dim>32</dim>
					<dim>1</dim>
					<dim>3</dim>
					<dim>3</dim>
				</port>
			</output>
		</layer>
		<layer id="174" name="Multiply_68558225120425/restored_convert/quantized/to_f32" type="Convert" version="opset1">
			<data destination_type="f32"/>
			<input>
				<port id="0">
					<dim>32</dim>
					<dim>1</dim>
					<dim>3</dim>
					<dim>3</dim>
				</port>
			</input>
			<output>
				<port id="1" precision="FP32">
					<dim>32</dim>
					<dim>1</dim>
					<dim>3</dim>
					<dim>3</dim>
				</port>
			</output>
		</layer>
		<layer id="175" name="Multiply_68163/fq_weights_1/mulpiply_by_scale" type="Multiply" version="opset1">
			<data auto_broadcast="numpy"/>
			<input>
				<port id="0">
					<dim>32</dim>
					<dim>1</dim>
					<dim>3</dim>
					<dim>3</dim>
				</port>
				<port id="1">
					<dim>32</dim>
					<dim>1</dim>
					<dim>1</dim>
					<dim>1</dim>
				</port>
			</input>
			<output>
				<port id="2" precision="FP32">
					<dim>32</dim>
					<dim>1</dim>
					<dim>3</dim>
					<dim>3</dim>
				</port>
			</output>
		</layer>
		<layer id="176" name="Multiply_68163/GOI_weights_part3045836684" type="Const" version="opset1">
			<data offset="7952" size="24" shape="3" element_type="i64"/>
			<output>
				<port id="0" precision="I64">
					<dim>3</dim>
				</port>
			</output>
		</layer>
		<layer id="177" name="Multiply_68163/WeightsShape" type="ShapeOf" version="opset3">
			<data output_type="i64"/>
			<input>
				<port id="0">
					<dim>32</dim>
					<dim>1</dim>
					<dim>3</dim>
					<dim>3</dim>
				</port>
			</input>
			<output>
				<port id="1" precision="I64">
					<dim>4</dim>
				</port>
			</output>
		</layer>
		<layer id="178" name="Multiply_68163/XY_weights_part_input_port_1/value3045434680" type="Const" version="opset1">
			<data offset="18" size="16" shape="2" element_type="i64"/>
			<output>
				<port id="0" precision="I64">
					<dim>2</dim>
				</port>
			</output>
		</layer>
		<layer id="179" name="Multiply_68163/XY_weights_part_input_port_2/value3045638577" type="Const" version="opset1">
			<data offset="7976" size="8" shape="" element_type="i64"/>
			<output>
				<port id="0" precision="I64"/>
			</output>
		</layer>
		<layer id="180" name="Multiply_68163/XY_weights_part" type="Gather" version="opset8">
			<data batch_dims="0"/>
			<input>
				<port id="0">
					<dim>4</dim>
				</port>
				<port id="1">
					<dim>2</dim>
				</port>
				<port id="2"/>
			</input>
			<output>
				<port id="3" precision="I64">
					<dim>2</dim>
				</port>
			</output>
		</layer>
		<layer id="181" name="Multiply_68163/weights_shape" type="Concat" version="opset1">
			<data axis="0"/>
			<input>
				<port id="0">
					<dim>3</dim>
				</port>
				<port id="1">
					<dim>2</dim>
				</port>
			</input>
			<output>
				<port id="2" precision="I64">
					<dim>5</dim>
				</port>
			</output>
		</layer>
		<layer id="182" name="30460" type="Reshape" version="opset1">
			<data special_zero="true"/>
			<input>
				<port id="0">
					<dim>32</dim>
					<dim>1</dim>
					<dim>3</dim>
					<dim>3</dim>
				</port>
				<port id="1">
					<dim>5</dim>
				</port>
			</input>
			<output>
				<port id="2" precision="FP32">
					<dim>32</dim>
					<dim>1</dim>
					<dim>1</dim>
					<dim>3</dim>
					<dim>3</dim>
				</port>
			</output>
		</layer>
		<layer id="183" name="Multiply_68163" type="GroupConvolution" version="opset1">
			<data auto_pad="explicit" strides="1,1" dilations="1,1" pads_begin="1,1" pads_end="1,1"/>
			<input>
				<port id="0">
					<dim>1</dim>
					<dim>32</dim>
					<dim>208</dim>
					<dim>208</dim>
				</port>
				<port id="1">
					<dim>32</dim>
					<dim>1</dim>
					<dim>1</dim>
					<dim>3</dim>
					<dim>3</dim>
				</port>
			</input>
			<output>
				<port id="2" precision="FP32" names="376">
					<dim>1</dim>
					<dim>32</dim>
					<dim>208</dim>
					<dim>208</dim>
				</port>
			</output>
		</layer>
		<layer id="184" name="Constant_68168225438106" type="Const" version="opset1">
			<data offset="7984" size="64" shape="1,32,1,1" element_type="f16"/>
			<output>
				<port id="0" precision="FP16">
					<dim>1</dim>
					<dim>32</dim>
					<dim>1</dim>
					<dim>1</dim>
				</port>
			</output>
		</layer>
		<layer id="185" name="Constant_68168225420426/restored_convert" type="Convert" version="opset1">
			<data destination_type="f32"/>
			<rt_info>
				<attribute name="decompression" version="0"/>
			</rt_info>
			<input>
				<port id="0">
					<dim>1</dim>
					<dim>32</dim>
					<dim>1</dim>
					<dim>1</dim>
				</port>
			</input>
			<output>
				<port id="1" precision="FP32">
					<dim>1</dim>
					<dim>32</dim>
					<dim>1</dim>
					<dim>1</dim>
				</port>
			</output>
		</layer>
		<layer id="186" name="BatchNormalization_13" type="Add" version="opset1">
			<data auto_broadcast="numpy"/>
			<input>
				<port id="0">
					<dim>1</dim>
					<dim>32</dim>
					<dim>208</dim>
					<dim>208</dim>
				</port>
				<port id="1">
					<dim>1</dim>
					<dim>32</dim>
					<dim>1</dim>
					<dim>1</dim>
				</port>
			</input>
			<output>
				<port id="2" precision="FP32" names="377">
					<dim>1</dim>
					<dim>32</dim>
					<dim>208</dim>
					<dim>208</dim>
				</port>
			</output>
		</layer>
		<layer id="187" name="Clip_14" type="Clamp" version="opset1">
			<data max="6" min="0"/>
			<input>
				<port id="0">
					<dim>1</dim>
					<dim>32</dim>
					<dim>208</dim>
					<dim>208</dim>
				</port>
			</input>
			<output>
				<port id="1" precision="FP32" names="378">
					<dim>1</dim>
					<dim>32</dim>
					<dim>208</dim>
					<dim>208</dim>
				</port>
			</output>
		</layer>
		<layer id="188" name="Multiply_68170/fq_input_0" type="FakeQuantize" version="opset1">
			<data levels="256" auto_broadcast="numpy"/>
			<input>
				<port id="0">
					<dim>1</dim>
					<dim>32</dim>
					<dim>208</dim>
					<dim>208</dim>
				</port>
				<port id="1"/>
				<port id="2"/>
				<port id="3"/>
				<port id="4"/>
			</input>
			<output>
				<port id="5" precision="FP32">
					<dim>1</dim>
					<dim>32</dim>
					<dim>208</dim>
					<dim>208</dim>
				</port>
			</output>
		</layer>
		<layer id="189" name="Multiply_68170/fq_weights_1/scale2330036198" type="Const" version="opset1">
			<data offset="8048" size="64" shape="16,1,1,1" element_type="f32"/>
			<output>
				<port id="0" precision="FP32">
					<dim>16</dim>
					<dim>1</dim>
					<dim>1</dim>
					<dim>1</dim>
				</port>
			</output>
		</layer>
		<layer id="190" name="Multiply_68566225820427/restored_convert/quantized2329237428" type="Const" version="opset1">
			<data offset="8112" size="512" shape="16,32,1,1" element_type="i8"/>
			<output>
				<port id="0" precision="I8">
					<dim>16</dim>
					<dim>32</dim>
					<dim>1</dim>
					<dim>1</dim>
				</port>
			</output>
		</layer>
		<layer id="191" name="Multiply_68566225820427/restored_convert/quantized/to_f32" type="Convert" version="opset1">
			<data destination_type="f32"/>
			<input>
				<port id="0">
					<dim>16</dim>
					<dim>32</dim>
					<dim>1</dim>
					<dim>1</dim>
				</port>
			</input>
			<output>
				<port id="1" precision="FP32">
					<dim>16</dim>
					<dim>32</dim>
					<dim>1</dim>
					<dim>1</dim>
				</port>
			</output>
		</layer>
		<layer id="192" name="Multiply_68170/fq_weights_1/mulpiply_by_scale" type="Multiply" version="opset1">
			<data auto_broadcast="numpy"/>
			<input>
				<port id="0">
					<dim>16</dim>
					<dim>32</dim>
					<dim>1</dim>
					<dim>1</dim>
				</port>
				<port id="1">
					<dim>16</dim>
					<dim>1</dim>
					<dim>1</dim>
					<dim>1</dim>
				</port>
			</input>
			<output>
				<port id="2" precision="FP32">
					<dim>16</dim>
					<dim>32</dim>
					<dim>1</dim>
					<dim>1</dim>
				</port>
			</output>
		</layer>
		<layer id="193" name="Multiply_68170" type="Convolution" version="opset1">
			<data auto_pad="explicit" strides="1,1" dilations="1,1" pads_begin="0,0" pads_end="0,0"/>
			<input>
				<port id="0">
					<dim>1</dim>
					<dim>32</dim>
					<dim>208</dim>
					<dim>208</dim>
				</port>
				<port id="1">
					<dim>16</dim>
					<dim>32</dim>
					<dim>1</dim>
					<dim>1</dim>
				</port>
			</input>
			<output>
				<port id="2" precision="FP32">
					<dim>1</dim>
					<dim>16</dim>
					<dim>208</dim>
					<dim>208</dim>
				</port>
			</output>
		</layer>
		<layer id="194" name="Constant_68175226135649" type="Const" version="opset1">
			<data offset="8624" size="32" shape="1,16,1,1" element_type="f16"/>
			<output>
				<port id="0" precision="FP16">
					<dim>1</dim>
					<dim>16</dim>
					<dim>1</dim>
					<dim>1</dim>
				</port>
			</output>
		</layer>
		<layer id="195" name="Constant_68175226120428/restored_convert" type="Convert" version="opset1">
			<data destination_type="f32"/>
			<rt_info>
				<attribute name="decompression" version="0"/>
			</rt_info>
			<input>
				<port id="0">
					<dim>1</dim>
					<dim>16</dim>
					<dim>1</dim>
					<dim>1</dim>
				</port>
			</input>
			<output>
				<port id="1" precision="FP32">
					<dim>1</dim>
					<dim>16</dim>
					<dim>1</dim>
					<dim>1</dim>
				</port>
			</output>
		</layer>
		<layer id="196" name="BatchNormalization_16" type="Add" version="opset1">
			<data auto_broadcast="numpy"/>
			<input>
				<port id="0">
					<dim>1</dim>
					<dim>16</dim>
					<dim>208</dim>
					<dim>208</dim>
				</port>
				<port id="1">
					<dim>1</dim>
					<dim>16</dim>
					<dim>1</dim>
					<dim>1</dim>
				</port>
			</input>
			<output>
				<port id="2" precision="FP32" names="380">
					<dim>1</dim>
					<dim>16</dim>
					<dim>208</dim>
					<dim>208</dim>
				</port>
			</output>
		</layer>
		<layer id="197" name="Multiply_68177/fq_input_0" type="FakeQuantize" version="opset1">
			<data levels="256" auto_broadcast="numpy"/>
			<input>
				<port id="0">
					<dim>1</dim>
					<dim>16</dim>
					<dim>208</dim>
					<dim>208</dim>
				</port>
				<port id="1"/>
				<port id="2"/>
				<port id="3"/>
				<port id="4"/>
			</input>
			<output>
				<port id="5" precision="FP32">
					<dim>1</dim>
					<dim>16</dim>
					<dim>208</dim>
					<dim>208</dim>
				</port>
			</output>
		</layer>
		<layer id="198" name="Multiply_68177/fq_weights_1/scale2420037038" type="Const" version="opset1">
			<data offset="8656" size="384" shape="96,1,1,1" element_type="f32"/>
			<output>
				<port id="0" precision="FP32">
					<dim>96</dim>
					<dim>1</dim>
					<dim>1</dim>
					<dim>1</dim>
				</port>
			</output>
		</layer>
		<layer id="199" name="Multiply_68575226420429/restored_convert/quantized2419235937" type="Const" version="opset1">
			<data offset="9040" size="1536" shape="96,16,1,1" element_type="i8"/>
			<output>
				<port id="0" precision="I8">
					<dim>96</dim>
					<dim>16</dim>
					<dim>1</dim>
					<dim>1</dim>
				</port>
			</output>
		</layer>
		<layer id="200" name="Multiply_68575226420429/restored_convert/quantized/to_f32" type="Convert" version="opset1">
			<data destination_type="f32"/>
			<input>
				<port id="0">
					<dim>96</dim>
					<dim>16</dim>
					<dim>1</dim>
					<dim>1</dim>
				</port>
			</input>
			<output>
				<port id="1" precision="FP32">
					<dim>96</dim>
					<dim>16</dim>
					<dim>1</dim>
					<dim>1</dim>
				</port>
			</output>
		</layer>
		<layer id="201" name="Multiply_68177/fq_weights_1/mulpiply_by_scale" type="Multiply" version="opset1">
			<data auto_broadcast="numpy"/>
			<input>
				<port id="0">
					<dim>96</dim>
					<dim>16</dim>
					<dim>1</dim>
					<dim>1</dim>
				</port>
				<port id="1">
					<dim>96</dim>
					<dim>1</dim>
					<dim>1</dim>
					<dim>1</dim>
				</port>
			</input>
			<output>
				<port id="2" precision="FP32">
					<dim>96</dim>
					<dim>16</dim>
					<dim>1</dim>
					<dim>1</dim>
				</port>
			</output>
		</layer>
		<layer id="202" name="Multiply_68177" type="Convolution" version="opset1">
			<data auto_pad="explicit" strides="1,1" dilations="1,1" pads_begin="0,0" pads_end="0,0"/>
			<input>
				<port id="0">
					<dim>1</dim>
					<dim>16</dim>
					<dim>208</dim>
					<dim>208</dim>
				</port>
				<port id="1">
					<dim>96</dim>
					<dim>16</dim>
					<dim>1</dim>
					<dim>1</dim>
				</port>
			</input>
			<output>
				<port id="2" precision="FP32">
					<dim>1</dim>
					<dim>96</dim>
					<dim>208</dim>
					<dim>208</dim>
				</port>
			</output>
		</layer>
		<layer id="203" name="Constant_68182226737311" type="Const" version="opset1">
			<data offset="10576" size="192" shape="1,96,1,1" element_type="f16"/>
			<output>
				<port id="0" precision="FP16">
					<dim>1</dim>
					<dim>96</dim>
					<dim>1</dim>
					<dim>1</dim>
				</port>
			</output>
		</layer>
		<layer id="204" name="Constant_68182226720430/restored_convert" type="Convert" version="opset1">
			<data destination_type="f32"/>
			<rt_info>
				<attribute name="decompression" version="0"/>
			</rt_info>
			<input>
				<port id="0">
					<dim>1</dim>
					<dim>96</dim>
					<dim>1</dim>
					<dim>1</dim>
				</port>
			</input>
			<output>
				<port id="1" precision="FP32">
					<dim>1</dim>
					<dim>96</dim>
					<dim>1</dim>
					<dim>1</dim>
				</port>
			</output>
		</layer>
		<layer id="205" name="BatchNormalization_18" type="Add" version="opset1">
			<data auto_broadcast="numpy"/>
			<input>
				<port id="0">
					<dim>1</dim>
					<dim>96</dim>
					<dim>208</dim>
					<dim>208</dim>
				</port>
				<port id="1">
					<dim>1</dim>
					<dim>96</dim>
					<dim>1</dim>
					<dim>1</dim>
				</port>
			</input>
			<output>
				<port id="2" precision="FP32" names="382">
					<dim>1</dim>
					<dim>96</dim>
					<dim>208</dim>
					<dim>208</dim>
				</port>
			</output>
		</layer>
		<layer id="206" name="Clip_19" type="Clamp" version="opset1">
			<data max="6" min="0"/>
			<input>
				<port id="0">
					<dim>1</dim>
					<dim>96</dim>
					<dim>208</dim>
					<dim>208</dim>
				</port>
			</input>
			<output>
				<port id="1" precision="FP32" names="383">
					<dim>1</dim>
					<dim>96</dim>
					<dim>208</dim>
					<dim>208</dim>
				</port>
			</output>
		</layer>
		<layer id="207" name="Multiply_68184/fq_input_0" type="FakeQuantize" version="opset1">
			<data levels="256" auto_broadcast="numpy"/>
			<input>
				<port id="0">
					<dim>1</dim>
					<dim>96</dim>
					<dim>208</dim>
					<dim>208</dim>
				</port>
				<port id="1">
					<dim>1</dim>
					<dim>96</dim>
					<dim>1</dim>
					<dim>1</dim>
				</port>
				<port id="2">
					<dim>1</dim>
					<dim>96</dim>
					<dim>1</dim>
					<dim>1</dim>
				</port>
				<port id="3">
					<dim>1</dim>
					<dim>96</dim>
					<dim>1</dim>
					<dim>1</dim>
				</port>
				<port id="4">
					<dim>1</dim>
					<dim>96</dim>
					<dim>1</dim>
					<dim>1</dim>
				</port>
			</input>
			<output>
				<port id="5" precision="FP32">
					<dim>1</dim>
					<dim>96</dim>
					<dim>208</dim>
					<dim>208</dim>
				</port>
			</output>
		</layer>
		<layer id="208" name="Multiply_68184/fq_weights_1/scale2288035850" type="Const" version="opset1">
			<data offset="10768" size="384" shape="96,1,1,1" element_type="f32"/>
			<output>
				<port id="0" precision="FP32">
					<dim>96</dim>
					<dim>1</dim>
					<dim>1</dim>
					<dim>1</dim>
				</port>
			</output>
		</layer>
		<layer id="209" name="Multiply_68584227120431/restored_convert/quantized2287238403" type="Const" version="opset1">
			<data offset="11152" size="864" shape="96,1,3,3" element_type="i8"/>
			<output>
				<port id="0" precision="I8">
					<dim>96</dim>
					<dim>1</dim>
					<dim>3</dim>
					<dim>3</dim>
				</port>
			</output>
		</layer>
		<layer id="210" name="Multiply_68584227120431/restored_convert/quantized/to_f32" type="Convert" version="opset1">
			<data destination_type="f32"/>
			<input>
				<port id="0">
					<dim>96</dim>
					<dim>1</dim>
					<dim>3</dim>
					<dim>3</dim>
				</port>
			</input>
			<output>
				<port id="1" precision="FP32">
					<dim>96</dim>
					<dim>1</dim>
					<dim>3</dim>
					<dim>3</dim>
				</port>
			</output>
		</layer>
		<layer id="211" name="Multiply_68184/fq_weights_1/mulpiply_by_scale" type="Multiply" version="opset1">
			<data auto_broadcast="numpy"/>
			<input>
				<port id="0">
					<dim>96</dim>
					<dim>1</dim>
					<dim>3</dim>
					<dim>3</dim>
				</port>
				<port id="1">
					<dim>96</dim>
					<dim>1</dim>
					<dim>1</dim>
					<dim>1</dim>
				</port>
			</input>
			<output>
				<port id="2" precision="FP32">
					<dim>96</dim>
					<dim>1</dim>
					<dim>3</dim>
					<dim>3</dim>
				</port>
			</output>
		</layer>
		<layer id="212" name="Multiply_68184/GOI_weights_part3047237989" type="Const" version="opset1">
			<data offset="12016" size="24" shape="3" element_type="i64"/>
			<output>
				<port id="0" precision="I64">
					<dim>3</dim>
				</port>
			</output>
		</layer>
		<layer id="213" name="Multiply_68184/WeightsShape" type="ShapeOf" version="opset3">
			<data output_type="i64"/>
			<input>
				<port id="0">
					<dim>96</dim>
					<dim>1</dim>
					<dim>3</dim>
					<dim>3</dim>
				</port>
			</input>
			<output>
				<port id="1" precision="I64">
					<dim>4</dim>
				</port>
			</output>
		</layer>
		<layer id="214" name="Multiply_68184/XY_weights_part_input_port_1/value3046837299" type="Const" version="opset1">
			<data offset="18" size="16" shape="2" element_type="i64"/>
			<output>
				<port id="0" precision="I64">
					<dim>2</dim>
				</port>
			</output>
		</layer>
		<layer id="215" name="Multiply_68184/XY_weights_part_input_port_2/value3047034362" type="Const" version="opset1">
			<data offset="7976" size="8" shape="" element_type="i64"/>
			<output>
				<port id="0" precision="I64"/>
			</output>
		</layer>
		<layer id="216" name="Multiply_68184/XY_weights_part" type="Gather" version="opset8">
			<data batch_dims="0"/>
			<input>
				<port id="0">
					<dim>4</dim>
				</port>
				<port id="1">
					<dim>2</dim>
				</port>
				<port id="2"/>
			</input>
			<output>
				<port id="3" precision="I64">
					<dim>2</dim>
				</port>
			</output>
		</layer>
		<layer id="217" name="Multiply_68184/weights_shape" type="Concat" version="opset1">
			<data axis="0"/>
			<input>
				<port id="0">
					<dim>3</dim>
				</port>
				<port id="1">
					<dim>2</dim>
				</port>
			</input>
			<output>
				<port id="2" precision="I64">
					<dim>5</dim>
				</port>
			</output>
		</layer>
		<layer id="218" name="30474" type="Reshape" version="opset1">
			<data special_zero="true"/>
			<input>
				<port id="0">
					<dim>96</dim>
					<dim>1</dim>
					<dim>3</dim>
					<dim>3</dim>
				</port>
				<port id="1">
					<dim>5</dim>
				</port>
			</input>
			<output>
				<port id="2" precision="FP32">
					<dim>96</dim>
					<dim>1</dim>
					<dim>1</dim>
					<dim>3</dim>
					<dim>3</dim>
				</port>
			</output>
		</layer>
		<layer id="219" name="Multiply_68184" type="GroupConvolution" version="opset1">
			<data auto_pad="explicit" strides="2,2" dilations="1,1" pads_begin="1,1" pads_end="1,1"/>
			<input>
				<port id="0">
					<dim>1</dim>
					<dim>96</dim>
					<dim>208</dim>
					<dim>208</dim>
				</port>
				<port id="1">
					<dim>96</dim>
					<dim>1</dim>
					<dim>1</dim>
					<dim>3</dim>
					<dim>3</dim>
				</port>
			</input>
			<output>
				<port id="2" precision="FP32" names="384">
					<dim>1</dim>
					<dim>96</dim>
					<dim>104</dim>
					<dim>104</dim>
				</port>
			</output>
		</layer>
		<layer id="220" name="Constant_68189227434539" type="Const" version="opset1">
			<data offset="12040" size="192" shape="1,96,1,1" element_type="f16"/>
			<output>
				<port id="0" precision="FP16">
					<dim>1</dim>
					<dim>96</dim>
					<dim>1</dim>
					<dim>1</dim>
				</port>
			</output>
		</layer>
		<layer id="221" name="Constant_68189227420432/restored_convert" type="Convert" version="opset1">
			<data destination_type="f32"/>
			<rt_info>
				<attribute name="decompression" version="0"/>
			</rt_info>
			<input>
				<port id="0">
					<dim>1</dim>
					<dim>96</dim>
					<dim>1</dim>
					<dim>1</dim>
				</port>
			</input>
			<output>
				<port id="1" precision="FP32">
					<dim>1</dim>
					<dim>96</dim>
					<dim>1</dim>
					<dim>1</dim>
				</port>
			</output>
		</layer>
		<layer id="222" name="BatchNormalization_21" type="Add" version="opset1">
			<data auto_broadcast="numpy"/>
			<input>
				<port id="0">
					<dim>1</dim>
					<dim>96</dim>
					<dim>104</dim>
					<dim>104</dim>
				</port>
				<port id="1">
					<dim>1</dim>
					<dim>96</dim>
					<dim>1</dim>
					<dim>1</dim>
				</port>
			</input>
			<output>
				<port id="2" precision="FP32" names="385">
					<dim>1</dim>
					<dim>96</dim>
					<dim>104</dim>
					<dim>104</dim>
				</port>
			</output>
		</layer>
		<layer id="223" name="Clip_22" type="Clamp" version="opset1">
			<data max="6" min="0"/>
			<input>
				<port id="0">
					<dim>1</dim>
					<dim>96</dim>
					<dim>104</dim>
					<dim>104</dim>
				</port>
			</input>
			<output>
				<port id="1" precision="FP32" names="386">
					<dim>1</dim>
					<dim>96</dim>
					<dim>104</dim>
					<dim>104</dim>
				</port>
			</output>
		</layer>
		<layer id="224" name="Multiply_68191/fq_input_0" type="FakeQuantize" version="opset1">
			<data levels="256" auto_broadcast="numpy"/>
			<input>
				<port id="0">
					<dim>1</dim>
					<dim>96</dim>
					<dim>104</dim>
					<dim>104</dim>
				</port>
				<port id="1"/>
				<port id="2"/>
				<port id="3"/>
				<port id="4"/>
			</input>
			<output>
				<port id="5" precision="FP32">
					<dim>1</dim>
					<dim>96</dim>
					<dim>104</dim>
					<dim>104</dim>
				</port>
			</output>
		</layer>
		<layer id="225" name="Multiply_68191/fq_weights_1/scale2477035079" type="Const" version="opset1">
			<data offset="12232" size="96" shape="24,1,1,1" element_type="f32"/>
			<output>
				<port id="0" precision="FP32">
					<dim>24</dim>
					<dim>1</dim>
					<dim>1</dim>
					<dim>1</dim>
				</port>
			</output>
		</layer>
		<layer id="226" name="Multiply_68592227820433/restored_convert/quantized2476234578" type="Const" version="opset1">
			<data offset="12328" size="2304" shape="24,96,1,1" element_type="i8"/>
			<output>
				<port id="0" precision="I8">
					<dim>24</dim>
					<dim>96</dim>
					<dim>1</dim>
					<dim>1</dim>
				</port>
			</output>
		</layer>
		<layer id="227" name="Multiply_68592227820433/restored_convert/quantized/to_f32" type="Convert" version="opset1">
			<data destination_type="f32"/>
			<input>
				<port id="0">
					<dim>24</dim>
					<dim>96</dim>
					<dim>1</dim>
					<dim>1</dim>
				</port>
			</input>
			<output>
				<port id="1" precision="FP32">
					<dim>24</dim>
					<dim>96</dim>
					<dim>1</dim>
					<dim>1</dim>
				</port>
			</output>
		</layer>
		<layer id="228" name="Multiply_68191/fq_weights_1/mulpiply_by_scale" type="Multiply" version="opset1">
			<data auto_broadcast="numpy"/>
			<input>
				<port id="0">
					<dim>24</dim>
					<dim>96</dim>
					<dim>1</dim>
					<dim>1</dim>
				</port>
				<port id="1">
					<dim>24</dim>
					<dim>1</dim>
					<dim>1</dim>
					<dim>1</dim>
				</port>
			</input>
			<output>
				<port id="2" precision="FP32">
					<dim>24</dim>
					<dim>96</dim>
					<dim>1</dim>
					<dim>1</dim>
				</port>
			</output>
		</layer>
		<layer id="229" name="Multiply_68191" type="Convolution" version="opset1">
			<data auto_pad="explicit" strides="1,1" dilations="1,1" pads_begin="0,0" pads_end="0,0"/>
			<input>
				<port id="0">
					<dim>1</dim>
					<dim>96</dim>
					<dim>104</dim>
					<dim>104</dim>
				</port>
				<port id="1">
					<dim>24</dim>
					<dim>96</dim>
					<dim>1</dim>
					<dim>1</dim>
				</port>
			</input>
			<output>
				<port id="2" precision="FP32">
					<dim>1</dim>
					<dim>24</dim>
					<dim>104</dim>
					<dim>104</dim>
				</port>
			</output>
		</layer>
		<layer id="230" name="Constant_68196228136114" type="Const" version="opset1">
			<data offset="14632" size="48" shape="1,24,1,1" element_type="f16"/>
			<output>
				<port id="0" precision="FP16">
					<dim>1</dim>
					<dim>24</dim>
					<dim>1</dim>
					<dim>1</dim>
				</port>
			</output>
		</layer>
		<layer id="231" name="Constant_68196228120434/restored_convert" type="Convert" version="opset1">
			<data destination_type="f32"/>
			<rt_info>
				<attribute name="decompression" version="0"/>
			</rt_info>
			<input>
				<port id="0">
					<dim>1</dim>
					<dim>24</dim>
					<dim>1</dim>
					<dim>1</dim>
				</port>
			</input>
			<output>
				<port id="1" precision="FP32">
					<dim>1</dim>
					<dim>24</dim>
					<dim>1</dim>
					<dim>1</dim>
				</port>
			</output>
		</layer>
		<layer id="232" name="BatchNormalization_24" type="Add" version="opset1">
			<data auto_broadcast="numpy"/>
			<input>
				<port id="0">
					<dim>1</dim>
					<dim>24</dim>
					<dim>104</dim>
					<dim>104</dim>
				</port>
				<port id="1">
					<dim>1</dim>
					<dim>24</dim>
					<dim>1</dim>
					<dim>1</dim>
				</port>
			</input>
			<output>
				<port id="2" precision="FP32" names="388">
					<dim>1</dim>
					<dim>24</dim>
					<dim>104</dim>
					<dim>104</dim>
				</port>
			</output>
		</layer>
		<layer id="233" name="Add_33/fq_input_1" type="FakeQuantize" version="opset1">
			<data levels="256" auto_broadcast="numpy"/>
			<input>
				<port id="0">
					<dim>1</dim>
					<dim>24</dim>
					<dim>104</dim>
					<dim>104</dim>
				</port>
				<port id="1"/>
				<port id="2"/>
				<port id="3"/>
				<port id="4"/>
			</input>
			<output>
				<port id="5" precision="FP32">
					<dim>1</dim>
					<dim>24</dim>
					<dim>104</dim>
					<dim>104</dim>
				</port>
			</output>
		</layer>
		<layer id="234" name="Multiply_68198/fq_weights_1/scale2297036357" type="Const" version="opset1">
			<data offset="14680" size="576" shape="144,1,1,1" element_type="f32"/>
			<output>
				<port id="0" precision="FP32">
					<dim>144</dim>
					<dim>1</dim>
					<dim>1</dim>
					<dim>1</dim>
				</port>
			</output>
		</layer>
		<layer id="235" name="Multiply_68601228420435/restored_convert/quantized2296236906" type="Const" version="opset1">
			<data offset="15256" size="3456" shape="144,24,1,1" element_type="i8"/>
			<output>
				<port id="0" precision="I8">
					<dim>144</dim>
					<dim>24</dim>
					<dim>1</dim>
					<dim>1</dim>
				</port>
			</output>
		</layer>
		<layer id="236" name="Multiply_68601228420435/restored_convert/quantized/to_f32" type="Convert" version="opset1">
			<data destination_type="f32"/>
			<input>
				<port id="0">
					<dim>144</dim>
					<dim>24</dim>
					<dim>1</dim>
					<dim>1</dim>
				</port>
			</input>
			<output>
				<port id="1" precision="FP32">
					<dim>144</dim>
					<dim>24</dim>
					<dim>1</dim>
					<dim>1</dim>
				</port>
			</output>
		</layer>
		<layer id="237" name="Multiply_68198/fq_weights_1/mulpiply_by_scale" type="Multiply" version="opset1">
			<data auto_broadcast="numpy"/>
			<input>
				<port id="0">
					<dim>144</dim>
					<dim>24</dim>
					<dim>1</dim>
					<dim>1</dim>
				</port>
				<port id="1">
					<dim>144</dim>
					<dim>1</dim>
					<dim>1</dim>
					<dim>1</dim>
				</port>
			</input>
			<output>
				<port id="2" precision="FP32">
					<dim>144</dim>
					<dim>24</dim>
					<dim>1</dim>
					<dim>1</dim>
				</port>
			</output>
		</layer>
		<layer id="238" name="Multiply_68198" type="Convolution" version="opset1">
			<data auto_pad="explicit" strides="1,1" dilations="1,1" pads_begin="0,0" pads_end="0,0"/>
			<input>
				<port id="0">
					<dim>1</dim>
					<dim>24</dim>
					<dim>104</dim>
					<dim>104</dim>
				</port>
				<port id="1">
					<dim>144</dim>
					<dim>24</dim>
					<dim>1</dim>
					<dim>1</dim>
				</port>
			</input>
			<output>
				<port id="2" precision="FP32">
					<dim>1</dim>
					<dim>144</dim>
					<dim>104</dim>
					<dim>104</dim>
				</port>
			</output>
		</layer>
		<layer id="239" name="Constant_68203228737047" type="Const" version="opset1">
			<data offset="18712" size="288" shape="1,144,1,1" element_type="f16"/>
			<output>
				<port id="0" precision="FP16">
					<dim>1</dim>
					<dim>144</dim>
					<dim>1</dim>
					<dim>1</dim>
				</port>
			</output>
		</layer>
		<layer id="240" name="Constant_68203228720436/restored_convert" type="Convert" version="opset1">
			<data destination_type="f32"/>
			<rt_info>
				<attribute name="decompression" version="0"/>
			</rt_info>
			<input>
				<port id="0">
					<dim>1</dim>
					<dim>144</dim>
					<dim>1</dim>
					<dim>1</dim>
				</port>
			</input>
			<output>
				<port id="1" precision="FP32">
					<dim>1</dim>
					<dim>144</dim>
					<dim>1</dim>
					<dim>1</dim>
				</port>
			</output>
		</layer>
		<layer id="241" name="BatchNormalization_26" type="Add" version="opset1">
			<data auto_broadcast="numpy"/>
			<input>
				<port id="0">
					<dim>1</dim>
					<dim>144</dim>
					<dim>104</dim>
					<dim>104</dim>
				</port>
				<port id="1">
					<dim>1</dim>
					<dim>144</dim>
					<dim>1</dim>
					<dim>1</dim>
				</port>
			</input>
			<output>
				<port id="2" precision="FP32" names="390">
					<dim>1</dim>
					<dim>144</dim>
					<dim>104</dim>
					<dim>104</dim>
				</port>
			</output>
		</layer>
		<layer id="242" name="Clip_27" type="Clamp" version="opset1">
			<data max="6" min="0"/>
			<input>
				<port id="0">
					<dim>1</dim>
					<dim>144</dim>
					<dim>104</dim>
					<dim>104</dim>
				</port>
			</input>
			<output>
				<port id="1" precision="FP32" names="391">
					<dim>1</dim>
					<dim>144</dim>
					<dim>104</dim>
					<dim>104</dim>
				</port>
			</output>
		</layer>
		<layer id="243" name="Multiply_68205/fq_input_0" type="FakeQuantize" version="opset1">
			<data levels="256" auto_broadcast="numpy"/>
			<input>
				<port id="0">
					<dim>1</dim>
					<dim>144</dim>
					<dim>104</dim>
					<dim>104</dim>
				</port>
				<port id="1">
					<dim>1</dim>
					<dim>144</dim>
					<dim>1</dim>
					<dim>1</dim>
				</port>
				<port id="2">
					<dim>1</dim>
					<dim>144</dim>
					<dim>1</dim>
					<dim>1</dim>
				</port>
				<port id="3">
					<dim>1</dim>
					<dim>144</dim>
					<dim>1</dim>
					<dim>1</dim>
				</port>
				<port id="4">
					<dim>1</dim>
					<dim>144</dim>
					<dim>1</dim>
					<dim>1</dim>
				</port>
			</input>
			<output>
				<port id="5" precision="FP32">
					<dim>1</dim>
					<dim>144</dim>
					<dim>104</dim>
					<dim>104</dim>
				</port>
			</output>
		</layer>
		<layer id="244" name="Multiply_68205/fq_weights_1/scale2492038490" type="Const" version="opset1">
			<data offset="19000" size="576" shape="144,1,1,1" element_type="f32"/>
			<output>
				<port id="0" precision="FP32">
					<dim>144</dim>
					<dim>1</dim>
					<dim>1</dim>
					<dim>1</dim>
				</port>
			</output>
		</layer>
		<layer id="245" name="Multiply_68610229120437/restored_convert/quantized2491235073" type="Const" version="opset1">
			<data offset="19576" size="1296" shape="144,1,3,3" element_type="i8"/>
			<output>
				<port id="0" precision="I8">
					<dim>144</dim>
					<dim>1</dim>
					<dim>3</dim>
					<dim>3</dim>
				</port>
			</output>
		</layer>
		<layer id="246" name="Multiply_68610229120437/restored_convert/quantized/to_f32" type="Convert" version="opset1">
			<data destination_type="f32"/>
			<input>
				<port id="0">
					<dim>144</dim>
					<dim>1</dim>
					<dim>3</dim>
					<dim>3</dim>
				</port>
			</input>
			<output>
				<port id="1" precision="FP32">
					<dim>144</dim>
					<dim>1</dim>
					<dim>3</dim>
					<dim>3</dim>
				</port>
			</output>
		</layer>
		<layer id="247" name="Multiply_68205/fq_weights_1/mulpiply_by_scale" type="Multiply" version="opset1">
			<data auto_broadcast="numpy"/>
			<input>
				<port id="0">
					<dim>144</dim>
					<dim>1</dim>
					<dim>3</dim>
					<dim>3</dim>
				</port>
				<port id="1">
					<dim>144</dim>
					<dim>1</dim>
					<dim>1</dim>
					<dim>1</dim>
				</port>
			</input>
			<output>
				<port id="2" precision="FP32">
					<dim>144</dim>
					<dim>1</dim>
					<dim>3</dim>
					<dim>3</dim>
				</port>
			</output>
		</layer>
		<layer id="248" name="Multiply_68205/GOI_weights_part3048634536" type="Const" version="opset1">
			<data offset="20872" size="24" shape="3" element_type="i64"/>
			<output>
				<port id="0" precision="I64">
					<dim>3</dim>
				</port>
			</output>
		</layer>
		<layer id="249" name="Multiply_68205/WeightsShape" type="ShapeOf" version="opset3">
			<data output_type="i64"/>
			<input>
				<port id="0">
					<dim>144</dim>
					<dim>1</dim>
					<dim>3</dim>
					<dim>3</dim>
				</port>
			</input>
			<output>
				<port id="1" precision="I64">
					<dim>4</dim>
				</port>
			</output>
		</layer>
		<layer id="250" name="Multiply_68205/XY_weights_part_input_port_1/value3048235544" type="Const" version="opset1">
			<data offset="18" size="16" shape="2" element_type="i64"/>
			<output>
				<port id="0" precision="I64">
					<dim>2</dim>
				</port>
			</output>
		</layer>
		<layer id="251" name="Multiply_68205/XY_weights_part_input_port_2/value3048434413" type="Const" version="opset1">
			<data offset="7976" size="8" shape="" element_type="i64"/>
			<output>
				<port id="0" precision="I64"/>
			</output>
		</layer>
		<layer id="252" name="Multiply_68205/XY_weights_part" type="Gather" version="opset8">
			<data batch_dims="0"/>
			<input>
				<port id="0">
					<dim>4</dim>
				</port>
				<port id="1">
					<dim>2</dim>
				</port>
				<port id="2"/>
			</input>
			<output>
				<port id="3" precision="I64">
					<dim>2</dim>
				</port>
			</output>
		</layer>
		<layer id="253" name="Multiply_68205/weights_shape" type="Concat" version="opset1">
			<data axis="0"/>
			<input>
				<port id="0">
					<dim>3</dim>
				</port>
				<port id="1">
					<dim>2</dim>
				</port>
			</input>
			<output>
				<port id="2" precision="I64">
					<dim>5</dim>
				</port>
			</output>
		</layer>
		<layer id="254" name="30488" type="Reshape" version="opset1">
			<data special_zero="true"/>
			<input>
				<port id="0">
					<dim>144</dim>
					<dim>1</dim>
					<dim>3</dim>
					<dim>3</dim>
				</port>
				<port id="1">
					<dim>5</dim>
				</port>
			</input>
			<output>
				<port id="2" precision="FP32">
					<dim>144</dim>
					<dim>1</dim>
					<dim>1</dim>
					<dim>3</dim>
					<dim>3</dim>
				</port>
			</output>
		</layer>
		<layer id="255" name="Multiply_68205" type="GroupConvolution" version="opset1">
			<data auto_pad="explicit" strides="1,1" dilations="1,1" pads_begin="1,1" pads_end="1,1"/>
			<input>
				<port id="0">
					<dim>1</dim>
					<dim>144</dim>
					<dim>104</dim>
					<dim>104</dim>
				</port>
				<port id="1">
					<dim>144</dim>
					<dim>1</dim>
					<dim>1</dim>
					<dim>3</dim>
					<dim>3</dim>
				</port>
			</input>
			<output>
				<port id="2" precision="FP32" names="392">
					<dim>1</dim>
					<dim>144</dim>
					<dim>104</dim>
					<dim>104</dim>
				</port>
			</output>
		</layer>
		<layer id="256" name="Constant_68210229434881" type="Const" version="opset1">
			<data offset="20896" size="288" shape="1,144,1,1" element_type="f16"/>
			<output>
				<port id="0" precision="FP16">
					<dim>1</dim>
					<dim>144</dim>
					<dim>1</dim>
					<dim>1</dim>
				</port>
			</output>
		</layer>
		<layer id="257" name="Constant_68210229420438/restored_convert" type="Convert" version="opset1">
			<data destination_type="f32"/>
			<rt_info>
				<attribute name="decompression" version="0"/>
			</rt_info>
			<input>
				<port id="0">
					<dim>1</dim>
					<dim>144</dim>
					<dim>1</dim>
					<dim>1</dim>
				</port>
			</input>
			<output>
				<port id="1" precision="FP32">
					<dim>1</dim>
					<dim>144</dim>
					<dim>1</dim>
					<dim>1</dim>
				</port>
			</output>
		</layer>
		<layer id="258" name="BatchNormalization_29" type="Add" version="opset1">
			<data auto_broadcast="numpy"/>
			<input>
				<port id="0">
					<dim>1</dim>
					<dim>144</dim>
					<dim>104</dim>
					<dim>104</dim>
				</port>
				<port id="1">
					<dim>1</dim>
					<dim>144</dim>
					<dim>1</dim>
					<dim>1</dim>
				</port>
			</input>
			<output>
				<port id="2" precision="FP32" names="393">
					<dim>1</dim>
					<dim>144</dim>
					<dim>104</dim>
					<dim>104</dim>
				</port>
			</output>
		</layer>
		<layer id="259" name="Clip_30" type="Clamp" version="opset1">
			<data max="6" min="0"/>
			<input>
				<port id="0">
					<dim>1</dim>
					<dim>144</dim>
					<dim>104</dim>
					<dim>104</dim>
				</port>
			</input>
			<output>
				<port id="1" precision="FP32" names="394">
					<dim>1</dim>
					<dim>144</dim>
					<dim>104</dim>
					<dim>104</dim>
				</port>
			</output>
		</layer>
		<layer id="260" name="Multiply_68212/fq_input_0" type="FakeQuantize" version="opset1">
			<data levels="256" auto_broadcast="numpy"/>
			<input>
				<port id="0">
					<dim>1</dim>
					<dim>144</dim>
					<dim>104</dim>
					<dim>104</dim>
				</port>
				<port id="1"/>
				<port id="2"/>
				<port id="3"/>
				<port id="4"/>
			</input>
			<output>
				<port id="5" precision="FP32">
					<dim>1</dim>
					<dim>144</dim>
					<dim>104</dim>
					<dim>104</dim>
				</port>
			</output>
		</layer>
		<layer id="261" name="Multiply_68212/fq_weights_1/scale2345035520" type="Const" version="opset1">
			<data offset="21184" size="96" shape="24,1,1,1" element_type="f32"/>
			<output>
				<port id="0" precision="FP32">
					<dim>24</dim>
					<dim>1</dim>
					<dim>1</dim>
					<dim>1</dim>
				</port>
			</output>
		</layer>
		<layer id="262" name="Multiply_68618229820439/restored_convert/quantized2344234374" type="Const" version="opset1">
			<data offset="21280" size="3456" shape="24,144,1,1" element_type="i8"/>
			<output>
				<port id="0" precision="I8">
					<dim>24</dim>
					<dim>144</dim>
					<dim>1</dim>
					<dim>1</dim>
				</port>
			</output>
		</layer>
		<layer id="263" name="Multiply_68618229820439/restored_convert/quantized/to_f32" type="Convert" version="opset1">
			<data destination_type="f32"/>
			<input>
				<port id="0">
					<dim>24</dim>
					<dim>144</dim>
					<dim>1</dim>
					<dim>1</dim>
				</port>
			</input>
			<output>
				<port id="1" precision="FP32">
					<dim>24</dim>
					<dim>144</dim>
					<dim>1</dim>
					<dim>1</dim>
				</port>
			</output>
		</layer>
		<layer id="264" name="Multiply_68212/fq_weights_1/mulpiply_by_scale" type="Multiply" version="opset1">
			<data auto_broadcast="numpy"/>
			<input>
				<port id="0">
					<dim>24</dim>
					<dim>144</dim>
					<dim>1</dim>
					<dim>1</dim>
				</port>
				<port id="1">
					<dim>24</dim>
					<dim>1</dim>
					<dim>1</dim>
					<dim>1</dim>
				</port>
			</input>
			<output>
				<port id="2" precision="FP32">
					<dim>24</dim>
					<dim>144</dim>
					<dim>1</dim>
					<dim>1</dim>
				</port>
			</output>
		</layer>
		<layer id="265" name="Multiply_68212" type="Convolution" version="opset1">
			<data auto_pad="explicit" strides="1,1" dilations="1,1" pads_begin="0,0" pads_end="0,0"/>
			<input>
				<port id="0">
					<dim>1</dim>
					<dim>144</dim>
					<dim>104</dim>
					<dim>104</dim>
				</port>
				<port id="1">
					<dim>24</dim>
					<dim>144</dim>
					<dim>1</dim>
					<dim>1</dim>
				</port>
			</input>
			<output>
				<port id="2" precision="FP32">
					<dim>1</dim>
					<dim>24</dim>
					<dim>104</dim>
					<dim>104</dim>
				</port>
			</output>
		</layer>
		<layer id="266" name="Constant_68217230138004" type="Const" version="opset1">
			<data offset="24736" size="48" shape="1,24,1,1" element_type="f16"/>
			<output>
				<port id="0" precision="FP16">
					<dim>1</dim>
					<dim>24</dim>
					<dim>1</dim>
					<dim>1</dim>
				</port>
			</output>
		</layer>
		<layer id="267" name="Constant_68217230120440/restored_convert" type="Convert" version="opset1">
			<data destination_type="f32"/>
			<rt_info>
				<attribute name="decompression" version="0"/>
			</rt_info>
			<input>
				<port id="0">
					<dim>1</dim>
					<dim>24</dim>
					<dim>1</dim>
					<dim>1</dim>
				</port>
			</input>
			<output>
				<port id="1" precision="FP32">
					<dim>1</dim>
					<dim>24</dim>
					<dim>1</dim>
					<dim>1</dim>
				</port>
			</output>
		</layer>
		<layer id="268" name="BatchNormalization_32" type="Add" version="opset1">
			<data auto_broadcast="numpy"/>
			<input>
				<port id="0">
					<dim>1</dim>
					<dim>24</dim>
					<dim>104</dim>
					<dim>104</dim>
				</port>
				<port id="1">
					<dim>1</dim>
					<dim>24</dim>
					<dim>1</dim>
					<dim>1</dim>
				</port>
			</input>
			<output>
				<port id="2" precision="FP32" names="396">
					<dim>1</dim>
					<dim>24</dim>
					<dim>104</dim>
					<dim>104</dim>
				</port>
			</output>
		</layer>
		<layer id="269" name="Add_33/fq_input_0" type="FakeQuantize" version="opset1">
			<data levels="256" auto_broadcast="numpy"/>
			<input>
				<port id="0">
					<dim>1</dim>
					<dim>24</dim>
					<dim>104</dim>
					<dim>104</dim>
				</port>
				<port id="1"/>
				<port id="2"/>
				<port id="3"/>
				<port id="4"/>
			</input>
			<output>
				<port id="5" precision="FP32">
					<dim>1</dim>
					<dim>24</dim>
					<dim>104</dim>
					<dim>104</dim>
				</port>
			</output>
		</layer>
		<layer id="270" name="Add_33" type="Add" version="opset1">
			<data auto_broadcast="numpy"/>
			<input>
				<port id="0">
					<dim>1</dim>
					<dim>24</dim>
					<dim>104</dim>
					<dim>104</dim>
				</port>
				<port id="1">
					<dim>1</dim>
					<dim>24</dim>
					<dim>104</dim>
					<dim>104</dim>
				</port>
			</input>
			<output>
				<port id="2" precision="FP32" names="397">
					<dim>1</dim>
					<dim>24</dim>
					<dim>104</dim>
					<dim>104</dim>
				</port>
			</output>
		</layer>
		<layer id="271" name="Multiply_68219/fq_input_0" type="FakeQuantize" version="opset1">
			<data levels="256" auto_broadcast="numpy"/>
			<input>
				<port id="0">
					<dim>1</dim>
					<dim>24</dim>
					<dim>104</dim>
					<dim>104</dim>
				</port>
				<port id="1"/>
				<port id="2"/>
				<port id="3"/>
				<port id="4"/>
			</input>
			<output>
				<port id="5" precision="FP32">
					<dim>1</dim>
					<dim>24</dim>
					<dim>104</dim>
					<dim>104</dim>
				</port>
			</output>
		</layer>
		<layer id="272" name="Multiply_68219/fq_weights_1/scale2357035112" type="Const" version="opset1">
			<data offset="24784" size="576" shape="144,1,1,1" element_type="f32"/>
			<output>
				<port id="0" precision="FP32">
					<dim>144</dim>
					<dim>1</dim>
					<dim>1</dim>
					<dim>1</dim>
				</port>
			</output>
		</layer>
		<layer id="273" name="Multiply_68627230520441/restored_convert/quantized2356236321" type="Const" version="opset1">
			<data offset="25360" size="3456" shape="144,24,1,1" element_type="i8"/>
			<output>
				<port id="0" precision="I8">
					<dim>144</dim>
					<dim>24</dim>
					<dim>1</dim>
					<dim>1</dim>
				</port>
			</output>
		</layer>
		<layer id="274" name="Multiply_68627230520441/restored_convert/quantized/to_f32" type="Convert" version="opset1">
			<data destination_type="f32"/>
			<input>
				<port id="0">
					<dim>144</dim>
					<dim>24</dim>
					<dim>1</dim>
					<dim>1</dim>
				</port>
			</input>
			<output>
				<port id="1" precision="FP32">
					<dim>144</dim>
					<dim>24</dim>
					<dim>1</dim>
					<dim>1</dim>
				</port>
			</output>
		</layer>
		<layer id="275" name="Multiply_68219/fq_weights_1/mulpiply_by_scale" type="Multiply" version="opset1">
			<data auto_broadcast="numpy"/>
			<input>
				<port id="0">
					<dim>144</dim>
					<dim>24</dim>
					<dim>1</dim>
					<dim>1</dim>
				</port>
				<port id="1">
					<dim>144</dim>
					<dim>1</dim>
					<dim>1</dim>
					<dim>1</dim>
				</port>
			</input>
			<output>
				<port id="2" precision="FP32">
					<dim>144</dim>
					<dim>24</dim>
					<dim>1</dim>
					<dim>1</dim>
				</port>
			</output>
		</layer>
		<layer id="276" name="Multiply_68219" type="Convolution" version="opset1">
			<data auto_pad="explicit" strides="1,1" dilations="1,1" pads_begin="0,0" pads_end="0,0"/>
			<input>
				<port id="0">
					<dim>1</dim>
					<dim>24</dim>
					<dim>104</dim>
					<dim>104</dim>
				</port>
				<port id="1">
					<dim>144</dim>
					<dim>24</dim>
					<dim>1</dim>
					<dim>1</dim>
				</port>
			</input>
			<output>
				<port id="2" precision="FP32">
					<dim>1</dim>
					<dim>144</dim>
					<dim>104</dim>
					<dim>104</dim>
				</port>
			</output>
		</layer>
		<layer id="277" name="Constant_68224230834368" type="Const" version="opset1">
			<data offset="28816" size="288" shape="1,144,1,1" element_type="f16"/>
			<output>
				<port id="0" precision="FP16">
					<dim>1</dim>
					<dim>144</dim>
					<dim>1</dim>
					<dim>1</dim>
				</port>
			</output>
		</layer>
		<layer id="278" name="Constant_68224230820442/restored_convert" type="Convert" version="opset1">
			<data destination_type="f32"/>
			<rt_info>
				<attribute name="decompression" version="0"/>
			</rt_info>
			<input>
				<port id="0">
					<dim>1</dim>
					<dim>144</dim>
					<dim>1</dim>
					<dim>1</dim>
				</port>
			</input>
			<output>
				<port id="1" precision="FP32">
					<dim>1</dim>
					<dim>144</dim>
					<dim>1</dim>
					<dim>1</dim>
				</port>
			</output>
		</layer>
		<layer id="279" name="BatchNormalization_35" type="Add" version="opset1">
			<data auto_broadcast="numpy"/>
			<input>
				<port id="0">
					<dim>1</dim>
					<dim>144</dim>
					<dim>104</dim>
					<dim>104</dim>
				</port>
				<port id="1">
					<dim>1</dim>
					<dim>144</dim>
					<dim>1</dim>
					<dim>1</dim>
				</port>
			</input>
			<output>
				<port id="2" precision="FP32" names="399">
					<dim>1</dim>
					<dim>144</dim>
					<dim>104</dim>
					<dim>104</dim>
				</port>
			</output>
		</layer>
		<layer id="280" name="Clip_36" type="Clamp" version="opset1">
			<data max="6" min="0"/>
			<input>
				<port id="0">
					<dim>1</dim>
					<dim>144</dim>
					<dim>104</dim>
					<dim>104</dim>
				</port>
			</input>
			<output>
				<port id="1" precision="FP32" names="400">
					<dim>1</dim>
					<dim>144</dim>
					<dim>104</dim>
					<dim>104</dim>
				</port>
			</output>
		</layer>
		<layer id="281" name="Multiply_68226/fq_input_0" type="FakeQuantize" version="opset1">
			<data levels="256" auto_broadcast="numpy"/>
			<input>
				<port id="0">
					<dim>1</dim>
					<dim>144</dim>
					<dim>104</dim>
					<dim>104</dim>
				</port>
				<port id="1">
					<dim>1</dim>
					<dim>144</dim>
					<dim>1</dim>
					<dim>1</dim>
				</port>
				<port id="2">
					<dim>1</dim>
					<dim>144</dim>
					<dim>1</dim>
					<dim>1</dim>
				</port>
				<port id="3">
					<dim>1</dim>
					<dim>144</dim>
					<dim>1</dim>
					<dim>1</dim>
				</port>
				<port id="4">
					<dim>1</dim>
					<dim>144</dim>
					<dim>1</dim>
					<dim>1</dim>
				</port>
			</input>
			<output>
				<port id="5" precision="FP32">
					<dim>1</dim>
					<dim>144</dim>
					<dim>104</dim>
					<dim>104</dim>
				</port>
			</output>
		</layer>
		<layer id="282" name="Multiply_68226/fq_weights_1/scale2495034314" type="Const" version="opset1">
			<data offset="29104" size="576" shape="144,1,1,1" element_type="f32"/>
			<output>
				<port id="0" precision="FP32">
					<dim>144</dim>
					<dim>1</dim>
					<dim>1</dim>
					<dim>1</dim>
				</port>
			</output>
		</layer>
		<layer id="283" name="Multiply_68636231220443/restored_convert/quantized2494235736" type="Const" version="opset1">
			<data offset="29680" size="1296" shape="144,1,3,3" element_type="i8"/>
			<output>
				<port id="0" precision="I8">
					<dim>144</dim>
					<dim>1</dim>
					<dim>3</dim>
					<dim>3</dim>
				</port>
			</output>
		</layer>
		<layer id="284" name="Multiply_68636231220443/restored_convert/quantized/to_f32" type="Convert" version="opset1">
			<data destination_type="f32"/>
			<input>
				<port id="0">
					<dim>144</dim>
					<dim>1</dim>
					<dim>3</dim>
					<dim>3</dim>
				</port>
			</input>
			<output>
				<port id="1" precision="FP32">
					<dim>144</dim>
					<dim>1</dim>
					<dim>3</dim>
					<dim>3</dim>
				</port>
			</output>
		</layer>
		<layer id="285" name="Multiply_68226/fq_weights_1/mulpiply_by_scale" type="Multiply" version="opset1">
			<data auto_broadcast="numpy"/>
			<input>
				<port id="0">
					<dim>144</dim>
					<dim>1</dim>
					<dim>3</dim>
					<dim>3</dim>
				</port>
				<port id="1">
					<dim>144</dim>
					<dim>1</dim>
					<dim>1</dim>
					<dim>1</dim>
				</port>
			</input>
			<output>
				<port id="2" precision="FP32">
					<dim>144</dim>
					<dim>1</dim>
					<dim>3</dim>
					<dim>3</dim>
				</port>
			</output>
		</layer>
		<layer id="286" name="Multiply_68226/GOI_weights_part3050035553" type="Const" version="opset1">
			<data offset="20872" size="24" shape="3" element_type="i64"/>
			<output>
				<port id="0" precision="I64">
					<dim>3</dim>
				</port>
			</output>
		</layer>
		<layer id="287" name="Multiply_68226/WeightsShape" type="ShapeOf" version="opset3">
			<data output_type="i64"/>
			<input>
				<port id="0">
					<dim>144</dim>
					<dim>1</dim>
					<dim>3</dim>
					<dim>3</dim>
				</port>
			</input>
			<output>
				<port id="1" precision="I64">
					<dim>4</dim>
				</port>
			</output>
		</layer>
		<layer id="288" name="Multiply_68226/XY_weights_part_input_port_1/value3049635862" type="Const" version="opset1">
			<data offset="18" size="16" shape="2" element_type="i64"/>
			<output>
				<port id="0" precision="I64">
					<dim>2</dim>
				</port>
			</output>
		</layer>
		<layer id="289" name="Multiply_68226/XY_weights_part_input_port_2/value3049838349" type="Const" version="opset1">
			<data offset="7976" size="8" shape="" element_type="i64"/>
			<output>
				<port id="0" precision="I64"/>
			</output>
		</layer>
		<layer id="290" name="Multiply_68226/XY_weights_part" type="Gather" version="opset8">
			<data batch_dims="0"/>
			<input>
				<port id="0">
					<dim>4</dim>
				</port>
				<port id="1">
					<dim>2</dim>
				</port>
				<port id="2"/>
			</input>
			<output>
				<port id="3" precision="I64">
					<dim>2</dim>
				</port>
			</output>
		</layer>
		<layer id="291" name="Multiply_68226/weights_shape" type="Concat" version="opset1">
			<data axis="0"/>
			<input>
				<port id="0">
					<dim>3</dim>
				</port>
				<port id="1">
					<dim>2</dim>
				</port>
			</input>
			<output>
				<port id="2" precision="I64">
					<dim>5</dim>
				</port>
			</output>
		</layer>
		<layer id="292" name="30502" type="Reshape" version="opset1">
			<data special_zero="true"/>
			<input>
				<port id="0">
					<dim>144</dim>
					<dim>1</dim>
					<dim>3</dim>
					<dim>3</dim>
				</port>
				<port id="1">
					<dim>5</dim>
				</port>
			</input>
			<output>
				<port id="2" precision="FP32">
					<dim>144</dim>
					<dim>1</dim>
					<dim>1</dim>
					<dim>3</dim>
					<dim>3</dim>
				</port>
			</output>
		</layer>
		<layer id="293" name="Multiply_68226" type="GroupConvolution" version="opset1">
			<data auto_pad="explicit" strides="2,2" dilations="1,1" pads_begin="1,1" pads_end="1,1"/>
			<input>
				<port id="0">
					<dim>1</dim>
					<dim>144</dim>
					<dim>104</dim>
					<dim>104</dim>
				</port>
				<port id="1">
					<dim>144</dim>
					<dim>1</dim>
					<dim>1</dim>
					<dim>3</dim>
					<dim>3</dim>
				</port>
			</input>
			<output>
				<port id="2" precision="FP32" names="401">
					<dim>1</dim>
					<dim>144</dim>
					<dim>52</dim>
					<dim>52</dim>
				</port>
			</output>
		</layer>
		<layer id="294" name="Constant_68231231537137" type="Const" version="opset1">
			<data offset="30976" size="288" shape="1,144,1,1" element_type="f16"/>
			<output>
				<port id="0" precision="FP16">
					<dim>1</dim>
					<dim>144</dim>
					<dim>1</dim>
					<dim>1</dim>
				</port>
			</output>
		</layer>
		<layer id="295" name="Constant_68231231520444/restored_convert" type="Convert" version="opset1">
			<data destination_type="f32"/>
			<rt_info>
				<attribute name="decompression" version="0"/>
			</rt_info>
			<input>
				<port id="0">
					<dim>1</dim>
					<dim>144</dim>
					<dim>1</dim>
					<dim>1</dim>
				</port>
			</input>
			<output>
				<port id="1" precision="FP32">
					<dim>1</dim>
					<dim>144</dim>
					<dim>1</dim>
					<dim>1</dim>
				</port>
			</output>
		</layer>
		<layer id="296" name="BatchNormalization_38" type="Add" version="opset1">
			<data auto_broadcast="numpy"/>
			<input>
				<port id="0">
					<dim>1</dim>
					<dim>144</dim>
					<dim>52</dim>
					<dim>52</dim>
				</port>
				<port id="1">
					<dim>1</dim>
					<dim>144</dim>
					<dim>1</dim>
					<dim>1</dim>
				</port>
			</input>
			<output>
				<port id="2" precision="FP32" names="402">
					<dim>1</dim>
					<dim>144</dim>
					<dim>52</dim>
					<dim>52</dim>
				</port>
			</output>
		</layer>
		<layer id="297" name="Clip_39" type="Clamp" version="opset1">
			<data max="6" min="0"/>
			<input>
				<port id="0">
					<dim>1</dim>
					<dim>144</dim>
					<dim>52</dim>
					<dim>52</dim>
				</port>
			</input>
			<output>
				<port id="1" precision="FP32" names="403">
					<dim>1</dim>
					<dim>144</dim>
					<dim>52</dim>
					<dim>52</dim>
				</port>
			</output>
		</layer>
		<layer id="298" name="Multiply_68233/fq_input_0" type="FakeQuantize" version="opset1">
			<data levels="256" auto_broadcast="numpy"/>
			<input>
				<port id="0">
					<dim>1</dim>
					<dim>144</dim>
					<dim>52</dim>
					<dim>52</dim>
				</port>
				<port id="1"/>
				<port id="2"/>
				<port id="3"/>
				<port id="4"/>
			</input>
			<output>
				<port id="5" precision="FP32">
					<dim>1</dim>
					<dim>144</dim>
					<dim>52</dim>
					<dim>52</dim>
				</port>
			</output>
		</layer>
		<layer id="299" name="Multiply_68233/fq_weights_1/scale2441036762" type="Const" version="opset1">
			<data offset="31264" size="128" shape="32,1,1,1" element_type="f32"/>
			<output>
				<port id="0" precision="FP32">
					<dim>32</dim>
					<dim>1</dim>
					<dim>1</dim>
					<dim>1</dim>
				</port>
			</output>
		</layer>
		<layer id="300" name="Multiply_68644231920445/restored_convert/quantized2440238259" type="Const" version="opset1">
			<data offset="31392" size="4608" shape="32,144,1,1" element_type="i8"/>
			<output>
				<port id="0" precision="I8">
					<dim>32</dim>
					<dim>144</dim>
					<dim>1</dim>
					<dim>1</dim>
				</port>
			</output>
		</layer>
		<layer id="301" name="Multiply_68644231920445/restored_convert/quantized/to_f32" type="Convert" version="opset1">
			<data destination_type="f32"/>
			<input>
				<port id="0">
					<dim>32</dim>
					<dim>144</dim>
					<dim>1</dim>
					<dim>1</dim>
				</port>
			</input>
			<output>
				<port id="1" precision="FP32">
					<dim>32</dim>
					<dim>144</dim>
					<dim>1</dim>
					<dim>1</dim>
				</port>
			</output>
		</layer>
		<layer id="302" name="Multiply_68233/fq_weights_1/mulpiply_by_scale" type="Multiply" version="opset1">
			<data auto_broadcast="numpy"/>
			<input>
				<port id="0">
					<dim>32</dim>
					<dim>144</dim>
					<dim>1</dim>
					<dim>1</dim>
				</port>
				<port id="1">
					<dim>32</dim>
					<dim>1</dim>
					<dim>1</dim>
					<dim>1</dim>
				</port>
			</input>
			<output>
				<port id="2" precision="FP32">
					<dim>32</dim>
					<dim>144</dim>
					<dim>1</dim>
					<dim>1</dim>
				</port>
			</output>
		</layer>
		<layer id="303" name="Multiply_68233" type="Convolution" version="opset1">
			<data auto_pad="explicit" strides="1,1" dilations="1,1" pads_begin="0,0" pads_end="0,0"/>
			<input>
				<port id="0">
					<dim>1</dim>
					<dim>144</dim>
					<dim>52</dim>
					<dim>52</dim>
				</port>
				<port id="1">
					<dim>32</dim>
					<dim>144</dim>
					<dim>1</dim>
					<dim>1</dim>
				</port>
			</input>
			<output>
				<port id="2" precision="FP32">
					<dim>1</dim>
					<dim>32</dim>
					<dim>52</dim>
					<dim>52</dim>
				</port>
			</output>
		</layer>
		<layer id="304" name="Constant_68238232235811" type="Const" version="opset1">
			<data offset="36000" size="64" shape="1,32,1,1" element_type="f16"/>
			<output>
				<port id="0" precision="FP16">
					<dim>1</dim>
					<dim>32</dim>
					<dim>1</dim>
					<dim>1</dim>
				</port>
			</output>
		</layer>
		<layer id="305" name="Constant_68238232220446/restored_convert" type="Convert" version="opset1">
			<data destination_type="f32"/>
			<rt_info>
				<attribute name="decompression" version="0"/>
			</rt_info>
			<input>
				<port id="0">
					<dim>1</dim>
					<dim>32</dim>
					<dim>1</dim>
					<dim>1</dim>
				</port>
			</input>
			<output>
				<port id="1" precision="FP32">
					<dim>1</dim>
					<dim>32</dim>
					<dim>1</dim>
					<dim>1</dim>
				</port>
			</output>
		</layer>
		<layer id="306" name="BatchNormalization_41" type="Add" version="opset1">
			<data auto_broadcast="numpy"/>
			<input>
				<port id="0">
					<dim>1</dim>
					<dim>32</dim>
					<dim>52</dim>
					<dim>52</dim>
				</port>
				<port id="1">
					<dim>1</dim>
					<dim>32</dim>
					<dim>1</dim>
					<dim>1</dim>
				</port>
			</input>
			<output>
				<port id="2" precision="FP32" names="405">
					<dim>1</dim>
					<dim>32</dim>
					<dim>52</dim>
					<dim>52</dim>
				</port>
			</output>
		</layer>
		<layer id="307" name="Add_50/fq_input_1" type="FakeQuantize" version="opset1">
			<data levels="256" auto_broadcast="numpy"/>
			<input>
				<port id="0">
					<dim>1</dim>
					<dim>32</dim>
					<dim>52</dim>
					<dim>52</dim>
				</port>
				<port id="1"/>
				<port id="2"/>
				<port id="3"/>
				<port id="4"/>
			</input>
			<output>
				<port id="5" precision="FP32">
					<dim>1</dim>
					<dim>32</dim>
					<dim>52</dim>
					<dim>52</dim>
				</port>
			</output>
		</layer>
		<layer id="308" name="Multiply_68240/fq_weights_1/scale2306034935" type="Const" version="opset1">
			<data offset="36064" size="768" shape="192,1,1,1" element_type="f32"/>
			<output>
				<port id="0" precision="FP32">
					<dim>192</dim>
					<dim>1</dim>
					<dim>1</dim>
					<dim>1</dim>
				</port>
			</output>
		</layer>
		<layer id="309" name="Multiply_68653232520447/restored_convert/quantized2305238166" type="Const" version="opset1">
			<data offset="36832" size="6144" shape="192,32,1,1" element_type="i8"/>
			<output>
				<port id="0" precision="I8">
					<dim>192</dim>
					<dim>32</dim>
					<dim>1</dim>
					<dim>1</dim>
				</port>
			</output>
		</layer>
		<layer id="310" name="Multiply_68653232520447/restored_convert/quantized/to_f32" type="Convert" version="opset1">
			<data destination_type="f32"/>
			<input>
				<port id="0">
					<dim>192</dim>
					<dim>32</dim>
					<dim>1</dim>
					<dim>1</dim>
				</port>
			</input>
			<output>
				<port id="1" precision="FP32">
					<dim>192</dim>
					<dim>32</dim>
					<dim>1</dim>
					<dim>1</dim>
				</port>
			</output>
		</layer>
		<layer id="311" name="Multiply_68240/fq_weights_1/mulpiply_by_scale" type="Multiply" version="opset1">
			<data auto_broadcast="numpy"/>
			<input>
				<port id="0">
					<dim>192</dim>
					<dim>32</dim>
					<dim>1</dim>
					<dim>1</dim>
				</port>
				<port id="1">
					<dim>192</dim>
					<dim>1</dim>
					<dim>1</dim>
					<dim>1</dim>
				</port>
			</input>
			<output>
				<port id="2" precision="FP32">
					<dim>192</dim>
					<dim>32</dim>
					<dim>1</dim>
					<dim>1</dim>
				</port>
			</output>
		</layer>
		<layer id="312" name="Multiply_68240" type="Convolution" version="opset1">
			<data auto_pad="explicit" strides="1,1" dilations="1,1" pads_begin="0,0" pads_end="0,0"/>
			<input>
				<port id="0">
					<dim>1</dim>
					<dim>32</dim>
					<dim>52</dim>
					<dim>52</dim>
				</port>
				<port id="1">
					<dim>192</dim>
					<dim>32</dim>
					<dim>1</dim>
					<dim>1</dim>
				</port>
			</input>
			<output>
				<port id="2" precision="FP32">
					<dim>1</dim>
					<dim>192</dim>
					<dim>52</dim>
					<dim>52</dim>
				</port>
			</output>
		</layer>
		<layer id="313" name="Constant_68245232834956" type="Const" version="opset1">
			<data offset="42976" size="384" shape="1,192,1,1" element_type="f16"/>
			<output>
				<port id="0" precision="FP16">
					<dim>1</dim>
					<dim>192</dim>
					<dim>1</dim>
					<dim>1</dim>
				</port>
			</output>
		</layer>
		<layer id="314" name="Constant_68245232820448/restored_convert" type="Convert" version="opset1">
			<data destination_type="f32"/>
			<rt_info>
				<attribute name="decompression" version="0"/>
			</rt_info>
			<input>
				<port id="0">
					<dim>1</dim>
					<dim>192</dim>
					<dim>1</dim>
					<dim>1</dim>
				</port>
			</input>
			<output>
				<port id="1" precision="FP32">
					<dim>1</dim>
					<dim>192</dim>
					<dim>1</dim>
					<dim>1</dim>
				</port>
			</output>
		</layer>
		<layer id="315" name="BatchNormalization_43" type="Add" version="opset1">
			<data auto_broadcast="numpy"/>
			<input>
				<port id="0">
					<dim>1</dim>
					<dim>192</dim>
					<dim>52</dim>
					<dim>52</dim>
				</port>
				<port id="1">
					<dim>1</dim>
					<dim>192</dim>
					<dim>1</dim>
					<dim>1</dim>
				</port>
			</input>
			<output>
				<port id="2" precision="FP32" names="407">
					<dim>1</dim>
					<dim>192</dim>
					<dim>52</dim>
					<dim>52</dim>
				</port>
			</output>
		</layer>
		<layer id="316" name="Clip_44" type="Clamp" version="opset1">
			<data max="6" min="0"/>
			<input>
				<port id="0">
					<dim>1</dim>
					<dim>192</dim>
					<dim>52</dim>
					<dim>52</dim>
				</port>
			</input>
			<output>
				<port id="1" precision="FP32" names="408">
					<dim>1</dim>
					<dim>192</dim>
					<dim>52</dim>
					<dim>52</dim>
				</port>
			</output>
		</layer>
		<layer id="317" name="Multiply_68247/fq_input_0" type="FakeQuantize" version="opset1">
			<data levels="256" auto_broadcast="numpy"/>
			<input>
				<port id="0">
					<dim>1</dim>
					<dim>192</dim>
					<dim>52</dim>
					<dim>52</dim>
				</port>
				<port id="1">
					<dim>1</dim>
					<dim>192</dim>
					<dim>1</dim>
					<dim>1</dim>
				</port>
				<port id="2">
					<dim>1</dim>
					<dim>192</dim>
					<dim>1</dim>
					<dim>1</dim>
				</port>
				<port id="3">
					<dim>1</dim>
					<dim>192</dim>
					<dim>1</dim>
					<dim>1</dim>
				</port>
				<port id="4">
					<dim>1</dim>
					<dim>192</dim>
					<dim>1</dim>
					<dim>1</dim>
				</port>
			</input>
			<output>
				<port id="5" precision="FP32">
					<dim>1</dim>
					<dim>192</dim>
					<dim>52</dim>
					<dim>52</dim>
				</port>
			</output>
		</layer>
		<layer id="318" name="Multiply_68247/fq_weights_1/scale2342034770" type="Const" version="opset1">
			<data offset="43360" size="768" shape="192,1,1,1" element_type="f32"/>
			<output>
				<port id="0" precision="FP32">
					<dim>192</dim>
					<dim>1</dim>
					<dim>1</dim>
					<dim>1</dim>
				</port>
			</output>
		</layer>
		<layer id="319" name="Multiply_68662233220449/restored_convert/quantized2341235958" type="Const" version="opset1">
			<data offset="44128" size="1728" shape="192,1,3,3" element_type="i8"/>
			<output>
				<port id="0" precision="I8">
					<dim>192</dim>
					<dim>1</dim>
					<dim>3</dim>
					<dim>3</dim>
				</port>
			</output>
		</layer>
		<layer id="320" name="Multiply_68662233220449/restored_convert/quantized/to_f32" type="Convert" version="opset1">
			<data destination_type="f32"/>
			<input>
				<port id="0">
					<dim>192</dim>
					<dim>1</dim>
					<dim>3</dim>
					<dim>3</dim>
				</port>
			</input>
			<output>
				<port id="1" precision="FP32">
					<dim>192</dim>
					<dim>1</dim>
					<dim>3</dim>
					<dim>3</dim>
				</port>
			</output>
		</layer>
		<layer id="321" name="Multiply_68247/fq_weights_1/mulpiply_by_scale" type="Multiply" version="opset1">
			<data auto_broadcast="numpy"/>
			<input>
				<port id="0">
					<dim>192</dim>
					<dim>1</dim>
					<dim>3</dim>
					<dim>3</dim>
				</port>
				<port id="1">
					<dim>192</dim>
					<dim>1</dim>
					<dim>1</dim>
					<dim>1</dim>
				</port>
			</input>
			<output>
				<port id="2" precision="FP32">
					<dim>192</dim>
					<dim>1</dim>
					<dim>3</dim>
					<dim>3</dim>
				</port>
			</output>
		</layer>
		<layer id="322" name="Multiply_68247/GOI_weights_part3051435832" type="Const" version="opset1">
			<data offset="45856" size="24" shape="3" element_type="i64"/>
			<output>
				<port id="0" precision="I64">
					<dim>3</dim>
				</port>
			</output>
		</layer>
		<layer id="323" name="Multiply_68247/WeightsShape" type="ShapeOf" version="opset3">
			<data output_type="i64"/>
			<input>
				<port id="0">
					<dim>192</dim>
					<dim>1</dim>
					<dim>3</dim>
					<dim>3</dim>
				</port>
			</input>
			<output>
				<port id="1" precision="I64">
					<dim>4</dim>
				</port>
			</output>
		</layer>
		<layer id="324" name="Multiply_68247/XY_weights_part_input_port_1/value3051037503" type="Const" version="opset1">
			<data offset="18" size="16" shape="2" element_type="i64"/>
			<output>
				<port id="0" precision="I64">
					<dim>2</dim>
				</port>
			</output>
		</layer>
		<layer id="325" name="Multiply_68247/XY_weights_part_input_port_2/value3051235091" type="Const" version="opset1">
			<data offset="7976" size="8" shape="" element_type="i64"/>
			<output>
				<port id="0" precision="I64"/>
			</output>
		</layer>
		<layer id="326" name="Multiply_68247/XY_weights_part" type="Gather" version="opset8">
			<data batch_dims="0"/>
			<input>
				<port id="0">
					<dim>4</dim>
				</port>
				<port id="1">
					<dim>2</dim>
				</port>
				<port id="2"/>
			</input>
			<output>
				<port id="3" precision="I64">
					<dim>2</dim>
				</port>
			</output>
		</layer>
		<layer id="327" name="Multiply_68247/weights_shape" type="Concat" version="opset1">
			<data axis="0"/>
			<input>
				<port id="0">
					<dim>3</dim>
				</port>
				<port id="1">
					<dim>2</dim>
				</port>
			</input>
			<output>
				<port id="2" precision="I64">
					<dim>5</dim>
				</port>
			</output>
		</layer>
		<layer id="328" name="30516" type="Reshape" version="opset1">
			<data special_zero="true"/>
			<input>
				<port id="0">
					<dim>192</dim>
					<dim>1</dim>
					<dim>3</dim>
					<dim>3</dim>
				</port>
				<port id="1">
					<dim>5</dim>
				</port>
			</input>
			<output>
				<port id="2" precision="FP32">
					<dim>192</dim>
					<dim>1</dim>
					<dim>1</dim>
					<dim>3</dim>
					<dim>3</dim>
				</port>
			</output>
		</layer>
		<layer id="329" name="Multiply_68247" type="GroupConvolution" version="opset1">
			<data auto_pad="explicit" strides="1,1" dilations="1,1" pads_begin="1,1" pads_end="1,1"/>
			<input>
				<port id="0">
					<dim>1</dim>
					<dim>192</dim>
					<dim>52</dim>
					<dim>52</dim>
				</port>
				<port id="1">
					<dim>192</dim>
					<dim>1</dim>
					<dim>1</dim>
					<dim>3</dim>
					<dim>3</dim>
				</port>
			</input>
			<output>
				<port id="2" precision="FP32" names="409">
					<dim>1</dim>
					<dim>192</dim>
					<dim>52</dim>
					<dim>52</dim>
				</port>
			</output>
		</layer>
		<layer id="330" name="Constant_68252233538409" type="Const" version="opset1">
			<data offset="45880" size="384" shape="1,192,1,1" element_type="f16"/>
			<output>
				<port id="0" precision="FP16">
					<dim>1</dim>
					<dim>192</dim>
					<dim>1</dim>
					<dim>1</dim>
				</port>
			</output>
		</layer>
		<layer id="331" name="Constant_68252233520450/restored_convert" type="Convert" version="opset1">
			<data destination_type="f32"/>
			<rt_info>
				<attribute name="decompression" version="0"/>
			</rt_info>
			<input>
				<port id="0">
					<dim>1</dim>
					<dim>192</dim>
					<dim>1</dim>
					<dim>1</dim>
				</port>
			</input>
			<output>
				<port id="1" precision="FP32">
					<dim>1</dim>
					<dim>192</dim>
					<dim>1</dim>
					<dim>1</dim>
				</port>
			</output>
		</layer>
		<layer id="332" name="BatchNormalization_46" type="Add" version="opset1">
			<data auto_broadcast="numpy"/>
			<input>
				<port id="0">
					<dim>1</dim>
					<dim>192</dim>
					<dim>52</dim>
					<dim>52</dim>
				</port>
				<port id="1">
					<dim>1</dim>
					<dim>192</dim>
					<dim>1</dim>
					<dim>1</dim>
				</port>
			</input>
			<output>
				<port id="2" precision="FP32" names="410">
					<dim>1</dim>
					<dim>192</dim>
					<dim>52</dim>
					<dim>52</dim>
				</port>
			</output>
		</layer>
		<layer id="333" name="Clip_47" type="Clamp" version="opset1">
			<data max="6" min="0"/>
			<input>
				<port id="0">
					<dim>1</dim>
					<dim>192</dim>
					<dim>52</dim>
					<dim>52</dim>
				</port>
			</input>
			<output>
				<port id="1" precision="FP32" names="411">
					<dim>1</dim>
					<dim>192</dim>
					<dim>52</dim>
					<dim>52</dim>
				</port>
			</output>
		</layer>
		<layer id="334" name="Multiply_68254/fq_input_0" type="FakeQuantize" version="opset1">
			<data levels="256" auto_broadcast="numpy"/>
			<input>
				<port id="0">
					<dim>1</dim>
					<dim>192</dim>
					<dim>52</dim>
					<dim>52</dim>
				</port>
				<port id="1"/>
				<port id="2"/>
				<port id="3"/>
				<port id="4"/>
			</input>
			<output>
				<port id="5" precision="FP32">
					<dim>1</dim>
					<dim>192</dim>
					<dim>52</dim>
					<dim>52</dim>
				</port>
			</output>
		</layer>
		<layer id="335" name="Multiply_68254/fq_weights_1/scale2315037089" type="Const" version="opset1">
			<data offset="46264" size="128" shape="32,1,1,1" element_type="f32"/>
			<output>
				<port id="0" precision="FP32">
					<dim>32</dim>
					<dim>1</dim>
					<dim>1</dim>
					<dim>1</dim>
				</port>
			</output>
		</layer>
		<layer id="336" name="Multiply_68670233920451/restored_convert/quantized2314238127" type="Const" version="opset1">
			<data offset="46392" size="6144" shape="32,192,1,1" element_type="i8"/>
			<output>
				<port id="0" precision="I8">
					<dim>32</dim>
					<dim>192</dim>
					<dim>1</dim>
					<dim>1</dim>
				</port>
			</output>
		</layer>
		<layer id="337" name="Multiply_68670233920451/restored_convert/quantized/to_f32" type="Convert" version="opset1">
			<data destination_type="f32"/>
			<input>
				<port id="0">
					<dim>32</dim>
					<dim>192</dim>
					<dim>1</dim>
					<dim>1</dim>
				</port>
			</input>
			<output>
				<port id="1" precision="FP32">
					<dim>32</dim>
					<dim>192</dim>
					<dim>1</dim>
					<dim>1</dim>
				</port>
			</output>
		</layer>
		<layer id="338" name="Multiply_68254/fq_weights_1/mulpiply_by_scale" type="Multiply" version="opset1">
			<data auto_broadcast="numpy"/>
			<input>
				<port id="0">
					<dim>32</dim>
					<dim>192</dim>
					<dim>1</dim>
					<dim>1</dim>
				</port>
				<port id="1">
					<dim>32</dim>
					<dim>1</dim>
					<dim>1</dim>
					<dim>1</dim>
				</port>
			</input>
			<output>
				<port id="2" precision="FP32">
					<dim>32</dim>
					<dim>192</dim>
					<dim>1</dim>
					<dim>1</dim>
				</port>
			</output>
		</layer>
		<layer id="339" name="Multiply_68254" type="Convolution" version="opset1">
			<data auto_pad="explicit" strides="1,1" dilations="1,1" pads_begin="0,0" pads_end="0,0"/>
			<input>
				<port id="0">
					<dim>1</dim>
					<dim>192</dim>
					<dim>52</dim>
					<dim>52</dim>
				</port>
				<port id="1">
					<dim>32</dim>
					<dim>192</dim>
					<dim>1</dim>
					<dim>1</dim>
				</port>
			</input>
			<output>
				<port id="2" precision="FP32">
					<dim>1</dim>
					<dim>32</dim>
					<dim>52</dim>
					<dim>52</dim>
				</port>
			</output>
		</layer>
		<layer id="340" name="Constant_68259234234866" type="Const" version="opset1">
			<data offset="52536" size="64" shape="1,32,1,1" element_type="f16"/>
			<output>
				<port id="0" precision="FP16">
					<dim>1</dim>
					<dim>32</dim>
					<dim>1</dim>
					<dim>1</dim>
				</port>
			</output>
		</layer>
		<layer id="341" name="Constant_68259234220452/restored_convert" type="Convert" version="opset1">
			<data destination_type="f32"/>
			<rt_info>
				<attribute name="decompression" version="0"/>
			</rt_info>
			<input>
				<port id="0">
					<dim>1</dim>
					<dim>32</dim>
					<dim>1</dim>
					<dim>1</dim>
				</port>
			</input>
			<output>
				<port id="1" precision="FP32">
					<dim>1</dim>
					<dim>32</dim>
					<dim>1</dim>
					<dim>1</dim>
				</port>
			</output>
		</layer>
		<layer id="342" name="BatchNormalization_49" type="Add" version="opset1">
			<data auto_broadcast="numpy"/>
			<input>
				<port id="0">
					<dim>1</dim>
					<dim>32</dim>
					<dim>52</dim>
					<dim>52</dim>
				</port>
				<port id="1">
					<dim>1</dim>
					<dim>32</dim>
					<dim>1</dim>
					<dim>1</dim>
				</port>
			</input>
			<output>
				<port id="2" precision="FP32" names="413">
					<dim>1</dim>
					<dim>32</dim>
					<dim>52</dim>
					<dim>52</dim>
				</port>
			</output>
		</layer>
		<layer id="343" name="Add_50/fq_input_0" type="FakeQuantize" version="opset1">
			<data levels="256" auto_broadcast="numpy"/>
			<input>
				<port id="0">
					<dim>1</dim>
					<dim>32</dim>
					<dim>52</dim>
					<dim>52</dim>
				</port>
				<port id="1"/>
				<port id="2"/>
				<port id="3"/>
				<port id="4"/>
			</input>
			<output>
				<port id="5" precision="FP32">
					<dim>1</dim>
					<dim>32</dim>
					<dim>52</dim>
					<dim>52</dim>
				</port>
			</output>
		</layer>
		<layer id="344" name="Add_50" type="Add" version="opset1">
			<data auto_broadcast="numpy"/>
			<input>
				<port id="0">
					<dim>1</dim>
					<dim>32</dim>
					<dim>52</dim>
					<dim>52</dim>
				</port>
				<port id="1">
					<dim>1</dim>
					<dim>32</dim>
					<dim>52</dim>
					<dim>52</dim>
				</port>
			</input>
			<output>
				<port id="2" precision="FP32" names="414">
					<dim>1</dim>
					<dim>32</dim>
					<dim>52</dim>
					<dim>52</dim>
				</port>
			</output>
		</layer>
		<layer id="345" name="Add_59/fq_input_1" type="FakeQuantize" version="opset1">
			<data levels="256" auto_broadcast="numpy"/>
			<input>
				<port id="0">
					<dim>1</dim>
					<dim>32</dim>
					<dim>52</dim>
					<dim>52</dim>
				</port>
				<port id="1"/>
				<port id="2"/>
				<port id="3"/>
				<port id="4"/>
			</input>
			<output>
				<port id="5" precision="FP32">
					<dim>1</dim>
					<dim>32</dim>
					<dim>52</dim>
					<dim>52</dim>
				</port>
			</output>
		</layer>
		<layer id="346" name="Multiply_68261/fq_weights_1/scale2339036810" type="Const" version="opset1">
			<data offset="52600" size="768" shape="192,1,1,1" element_type="f32"/>
			<output>
				<port id="0" precision="FP32">
					<dim>192</dim>
					<dim>1</dim>
					<dim>1</dim>
					<dim>1</dim>
				</port>
			</output>
		</layer>
		<layer id="347" name="Multiply_68679234620453/restored_convert/quantized2338237086" type="Const" version="opset1">
			<data offset="53368" size="6144" shape="192,32,1,1" element_type="i8"/>
			<output>
				<port id="0" precision="I8">
					<dim>192</dim>
					<dim>32</dim>
					<dim>1</dim>
					<dim>1</dim>
				</port>
			</output>
		</layer>
		<layer id="348" name="Multiply_68679234620453/restored_convert/quantized/to_f32" type="Convert" version="opset1">
			<data destination_type="f32"/>
			<input>
				<port id="0">
					<dim>192</dim>
					<dim>32</dim>
					<dim>1</dim>
					<dim>1</dim>
				</port>
			</input>
			<output>
				<port id="1" precision="FP32">
					<dim>192</dim>
					<dim>32</dim>
					<dim>1</dim>
					<dim>1</dim>
				</port>
			</output>
		</layer>
		<layer id="349" name="Multiply_68261/fq_weights_1/mulpiply_by_scale" type="Multiply" version="opset1">
			<data auto_broadcast="numpy"/>
			<input>
				<port id="0">
					<dim>192</dim>
					<dim>32</dim>
					<dim>1</dim>
					<dim>1</dim>
				</port>
				<port id="1">
					<dim>192</dim>
					<dim>1</dim>
					<dim>1</dim>
					<dim>1</dim>
				</port>
			</input>
			<output>
				<port id="2" precision="FP32">
					<dim>192</dim>
					<dim>32</dim>
					<dim>1</dim>
					<dim>1</dim>
				</port>
			</output>
		</layer>
		<layer id="350" name="Multiply_68261" type="Convolution" version="opset1">
			<data auto_pad="explicit" strides="1,1" dilations="1,1" pads_begin="0,0" pads_end="0,0"/>
			<input>
				<port id="0">
					<dim>1</dim>
					<dim>32</dim>
					<dim>52</dim>
					<dim>52</dim>
				</port>
				<port id="1">
					<dim>192</dim>
					<dim>32</dim>
					<dim>1</dim>
					<dim>1</dim>
				</port>
			</input>
			<output>
				<port id="2" precision="FP32">
					<dim>1</dim>
					<dim>192</dim>
					<dim>52</dim>
					<dim>52</dim>
				</port>
			</output>
		</layer>
		<layer id="351" name="Constant_68266234937674" type="Const" version="opset1">
			<data offset="59512" size="384" shape="1,192,1,1" element_type="f16"/>
			<output>
				<port id="0" precision="FP16">
					<dim>1</dim>
					<dim>192</dim>
					<dim>1</dim>
					<dim>1</dim>
				</port>
			</output>
		</layer>
		<layer id="352" name="Constant_68266234920454/restored_convert" type="Convert" version="opset1">
			<data destination_type="f32"/>
			<rt_info>
				<attribute name="decompression" version="0"/>
			</rt_info>
			<input>
				<port id="0">
					<dim>1</dim>
					<dim>192</dim>
					<dim>1</dim>
					<dim>1</dim>
				</port>
			</input>
			<output>
				<port id="1" precision="FP32">
					<dim>1</dim>
					<dim>192</dim>
					<dim>1</dim>
					<dim>1</dim>
				</port>
			</output>
		</layer>
		<layer id="353" name="BatchNormalization_52" type="Add" version="opset1">
			<data auto_broadcast="numpy"/>
			<input>
				<port id="0">
					<dim>1</dim>
					<dim>192</dim>
					<dim>52</dim>
					<dim>52</dim>
				</port>
				<port id="1">
					<dim>1</dim>
					<dim>192</dim>
					<dim>1</dim>
					<dim>1</dim>
				</port>
			</input>
			<output>
				<port id="2" precision="FP32" names="416">
					<dim>1</dim>
					<dim>192</dim>
					<dim>52</dim>
					<dim>52</dim>
				</port>
			</output>
		</layer>
		<layer id="354" name="Clip_53" type="Clamp" version="opset1">
			<data max="6" min="0"/>
			<input>
				<port id="0">
					<dim>1</dim>
					<dim>192</dim>
					<dim>52</dim>
					<dim>52</dim>
				</port>
			</input>
			<output>
				<port id="1" precision="FP32" names="417">
					<dim>1</dim>
					<dim>192</dim>
					<dim>52</dim>
					<dim>52</dim>
				</port>
			</output>
		</layer>
		<layer id="355" name="Multiply_68268/fq_input_0" type="FakeQuantize" version="opset1">
			<data levels="256" auto_broadcast="numpy"/>
			<input>
				<port id="0">
					<dim>1</dim>
					<dim>192</dim>
					<dim>52</dim>
					<dim>52</dim>
				</port>
				<port id="1">
					<dim>1</dim>
					<dim>192</dim>
					<dim>1</dim>
					<dim>1</dim>
				</port>
				<port id="2">
					<dim>1</dim>
					<dim>192</dim>
					<dim>1</dim>
					<dim>1</dim>
				</port>
				<port id="3">
					<dim>1</dim>
					<dim>192</dim>
					<dim>1</dim>
					<dim>1</dim>
				</port>
				<port id="4">
					<dim>1</dim>
					<dim>192</dim>
					<dim>1</dim>
					<dim>1</dim>
				</port>
			</input>
			<output>
				<port id="5" precision="FP32">
					<dim>1</dim>
					<dim>192</dim>
					<dim>52</dim>
					<dim>52</dim>
				</port>
			</output>
		</layer>
		<layer id="356" name="Multiply_68268/fq_weights_1/scale2276034698" type="Const" version="opset1">
			<data offset="59896" size="768" shape="192,1,1,1" element_type="f32"/>
			<output>
				<port id="0" precision="FP32">
					<dim>192</dim>
					<dim>1</dim>
					<dim>1</dim>
					<dim>1</dim>
				</port>
			</output>
		</layer>
		<layer id="357" name="Multiply_68688235320455/restored_convert/quantized2275237143" type="Const" version="opset1">
			<data offset="60664" size="1728" shape="192,1,3,3" element_type="i8"/>
			<output>
				<port id="0" precision="I8">
					<dim>192</dim>
					<dim>1</dim>
					<dim>3</dim>
					<dim>3</dim>
				</port>
			</output>
		</layer>
		<layer id="358" name="Multiply_68688235320455/restored_convert/quantized/to_f32" type="Convert" version="opset1">
			<data destination_type="f32"/>
			<input>
				<port id="0">
					<dim>192</dim>
					<dim>1</dim>
					<dim>3</dim>
					<dim>3</dim>
				</port>
			</input>
			<output>
				<port id="1" precision="FP32">
					<dim>192</dim>
					<dim>1</dim>
					<dim>3</dim>
					<dim>3</dim>
				</port>
			</output>
		</layer>
		<layer id="359" name="Multiply_68268/fq_weights_1/mulpiply_by_scale" type="Multiply" version="opset1">
			<data auto_broadcast="numpy"/>
			<input>
				<port id="0">
					<dim>192</dim>
					<dim>1</dim>
					<dim>3</dim>
					<dim>3</dim>
				</port>
				<port id="1">
					<dim>192</dim>
					<dim>1</dim>
					<dim>1</dim>
					<dim>1</dim>
				</port>
			</input>
			<output>
				<port id="2" precision="FP32">
					<dim>192</dim>
					<dim>1</dim>
					<dim>3</dim>
					<dim>3</dim>
				</port>
			</output>
		</layer>
		<layer id="360" name="Multiply_68268/GOI_weights_part3052834011" type="Const" version="opset1">
			<data offset="45856" size="24" shape="3" element_type="i64"/>
			<output>
				<port id="0" precision="I64">
					<dim>3</dim>
				</port>
			</output>
		</layer>
		<layer id="361" name="Multiply_68268/WeightsShape" type="ShapeOf" version="opset3">
			<data output_type="i64"/>
			<input>
				<port id="0">
					<dim>192</dim>
					<dim>1</dim>
					<dim>3</dim>
					<dim>3</dim>
				</port>
			</input>
			<output>
				<port id="1" precision="I64">
					<dim>4</dim>
				</port>
			</output>
		</layer>
		<layer id="362" name="Multiply_68268/XY_weights_part_input_port_1/value3052436609" type="Const" version="opset1">
			<data offset="18" size="16" shape="2" element_type="i64"/>
			<output>
				<port id="0" precision="I64">
					<dim>2</dim>
				</port>
			</output>
		</layer>
		<layer id="363" name="Multiply_68268/XY_weights_part_input_port_2/value3052636186" type="Const" version="opset1">
			<data offset="7976" size="8" shape="" element_type="i64"/>
			<output>
				<port id="0" precision="I64"/>
			</output>
		</layer>
		<layer id="364" name="Multiply_68268/XY_weights_part" type="Gather" version="opset8">
			<data batch_dims="0"/>
			<input>
				<port id="0">
					<dim>4</dim>
				</port>
				<port id="1">
					<dim>2</dim>
				</port>
				<port id="2"/>
			</input>
			<output>
				<port id="3" precision="I64">
					<dim>2</dim>
				</port>
			</output>
		</layer>
		<layer id="365" name="Multiply_68268/weights_shape" type="Concat" version="opset1">
			<data axis="0"/>
			<input>
				<port id="0">
					<dim>3</dim>
				</port>
				<port id="1">
					<dim>2</dim>
				</port>
			</input>
			<output>
				<port id="2" precision="I64">
					<dim>5</dim>
				</port>
			</output>
		</layer>
		<layer id="366" name="30530" type="Reshape" version="opset1">
			<data special_zero="true"/>
			<input>
				<port id="0">
					<dim>192</dim>
					<dim>1</dim>
					<dim>3</dim>
					<dim>3</dim>
				</port>
				<port id="1">
					<dim>5</dim>
				</port>
			</input>
			<output>
				<port id="2" precision="FP32">
					<dim>192</dim>
					<dim>1</dim>
					<dim>1</dim>
					<dim>3</dim>
					<dim>3</dim>
				</port>
			</output>
		</layer>
		<layer id="367" name="Multiply_68268" type="GroupConvolution" version="opset1">
			<data auto_pad="explicit" strides="1,1" dilations="1,1" pads_begin="1,1" pads_end="1,1"/>
			<input>
				<port id="0">
					<dim>1</dim>
					<dim>192</dim>
					<dim>52</dim>
					<dim>52</dim>
				</port>
				<port id="1">
					<dim>192</dim>
					<dim>1</dim>
					<dim>1</dim>
					<dim>3</dim>
					<dim>3</dim>
				</port>
			</input>
			<output>
				<port id="2" precision="FP32" names="418">
					<dim>1</dim>
					<dim>192</dim>
					<dim>52</dim>
					<dim>52</dim>
				</port>
			</output>
		</layer>
		<layer id="368" name="Constant_68273235634611" type="Const" version="opset1">
			<data offset="62392" size="384" shape="1,192,1,1" element_type="f16"/>
			<output>
				<port id="0" precision="FP16">
					<dim>1</dim>
					<dim>192</dim>
					<dim>1</dim>
					<dim>1</dim>
				</port>
			</output>
		</layer>
		<layer id="369" name="Constant_68273235620456/restored_convert" type="Convert" version="opset1">
			<data destination_type="f32"/>
			<rt_info>
				<attribute name="decompression" version="0"/>
			</rt_info>
			<input>
				<port id="0">
					<dim>1</dim>
					<dim>192</dim>
					<dim>1</dim>
					<dim>1</dim>
				</port>
			</input>
			<output>
				<port id="1" precision="FP32">
					<dim>1</dim>
					<dim>192</dim>
					<dim>1</dim>
					<dim>1</dim>
				</port>
			</output>
		</layer>
		<layer id="370" name="BatchNormalization_55" type="Add" version="opset1">
			<data auto_broadcast="numpy"/>
			<input>
				<port id="0">
					<dim>1</dim>
					<dim>192</dim>
					<dim>52</dim>
					<dim>52</dim>
				</port>
				<port id="1">
					<dim>1</dim>
					<dim>192</dim>
					<dim>1</dim>
					<dim>1</dim>
				</port>
			</input>
			<output>
				<port id="2" precision="FP32" names="419">
					<dim>1</dim>
					<dim>192</dim>
					<dim>52</dim>
					<dim>52</dim>
				</port>
			</output>
		</layer>
		<layer id="371" name="Clip_56" type="Clamp" version="opset1">
			<data max="6" min="0"/>
			<input>
				<port id="0">
					<dim>1</dim>
					<dim>192</dim>
					<dim>52</dim>
					<dim>52</dim>
				</port>
			</input>
			<output>
				<port id="1" precision="FP32" names="420">
					<dim>1</dim>
					<dim>192</dim>
					<dim>52</dim>
					<dim>52</dim>
				</port>
			</output>
		</layer>
		<layer id="372" name="Multiply_68275/fq_input_0" type="FakeQuantize" version="opset1">
			<data levels="256" auto_broadcast="numpy"/>
			<input>
				<port id="0">
					<dim>1</dim>
					<dim>192</dim>
					<dim>52</dim>
					<dim>52</dim>
				</port>
				<port id="1"/>
				<port id="2"/>
				<port id="3"/>
				<port id="4"/>
			</input>
			<output>
				<port id="5" precision="FP32">
					<dim>1</dim>
					<dim>192</dim>
					<dim>52</dim>
					<dim>52</dim>
				</port>
			</output>
		</layer>
		<layer id="373" name="Multiply_68275/fq_weights_1/scale2375035859" type="Const" version="opset1">
			<data offset="62776" size="128" shape="32,1,1,1" element_type="f32"/>
			<output>
				<port id="0" precision="FP32">
					<dim>32</dim>
					<dim>1</dim>
					<dim>1</dim>
					<dim>1</dim>
				</port>
			</output>
		</layer>
		<layer id="374" name="Multiply_68696236020457/restored_convert/quantized2374236429" type="Const" version="opset1">
			<data offset="62904" size="6144" shape="32,192,1,1" element_type="i8"/>
			<output>
				<port id="0" precision="I8">
					<dim>32</dim>
					<dim>192</dim>
					<dim>1</dim>
					<dim>1</dim>
				</port>
			</output>
		</layer>
		<layer id="375" name="Multiply_68696236020457/restored_convert/quantized/to_f32" type="Convert" version="opset1">
			<data destination_type="f32"/>
			<input>
				<port id="0">
					<dim>32</dim>
					<dim>192</dim>
					<dim>1</dim>
					<dim>1</dim>
				</port>
			</input>
			<output>
				<port id="1" precision="FP32">
					<dim>32</dim>
					<dim>192</dim>
					<dim>1</dim>
					<dim>1</dim>
				</port>
			</output>
		</layer>
		<layer id="376" name="Multiply_68275/fq_weights_1/mulpiply_by_scale" type="Multiply" version="opset1">
			<data auto_broadcast="numpy"/>
			<input>
				<port id="0">
					<dim>32</dim>
					<dim>192</dim>
					<dim>1</dim>
					<dim>1</dim>
				</port>
				<port id="1">
					<dim>32</dim>
					<dim>1</dim>
					<dim>1</dim>
					<dim>1</dim>
				</port>
			</input>
			<output>
				<port id="2" precision="FP32">
					<dim>32</dim>
					<dim>192</dim>
					<dim>1</dim>
					<dim>1</dim>
				</port>
			</output>
		</layer>
		<layer id="377" name="Multiply_68275" type="Convolution" version="opset1">
			<data auto_pad="explicit" strides="1,1" dilations="1,1" pads_begin="0,0" pads_end="0,0"/>
			<input>
				<port id="0">
					<dim>1</dim>
					<dim>192</dim>
					<dim>52</dim>
					<dim>52</dim>
				</port>
				<port id="1">
					<dim>32</dim>
					<dim>192</dim>
					<dim>1</dim>
					<dim>1</dim>
				</port>
			</input>
			<output>
				<port id="2" precision="FP32">
					<dim>1</dim>
					<dim>32</dim>
					<dim>52</dim>
					<dim>52</dim>
				</port>
			</output>
		</layer>
		<layer id="378" name="Constant_68280236335601" type="Const" version="opset1">
			<data offset="69048" size="64" shape="1,32,1,1" element_type="f16"/>
			<output>
				<port id="0" precision="FP16">
					<dim>1</dim>
					<dim>32</dim>
					<dim>1</dim>
					<dim>1</dim>
				</port>
			</output>
		</layer>
		<layer id="379" name="Constant_68280236320458/restored_convert" type="Convert" version="opset1">
			<data destination_type="f32"/>
			<rt_info>
				<attribute name="decompression" version="0"/>
			</rt_info>
			<input>
				<port id="0">
					<dim>1</dim>
					<dim>32</dim>
					<dim>1</dim>
					<dim>1</dim>
				</port>
			</input>
			<output>
				<port id="1" precision="FP32">
					<dim>1</dim>
					<dim>32</dim>
					<dim>1</dim>
					<dim>1</dim>
				</port>
			</output>
		</layer>
		<layer id="380" name="BatchNormalization_58" type="Add" version="opset1">
			<data auto_broadcast="numpy"/>
			<input>
				<port id="0">
					<dim>1</dim>
					<dim>32</dim>
					<dim>52</dim>
					<dim>52</dim>
				</port>
				<port id="1">
					<dim>1</dim>
					<dim>32</dim>
					<dim>1</dim>
					<dim>1</dim>
				</port>
			</input>
			<output>
				<port id="2" precision="FP32" names="422">
					<dim>1</dim>
					<dim>32</dim>
					<dim>52</dim>
					<dim>52</dim>
				</port>
			</output>
		</layer>
		<layer id="381" name="Add_59/fq_input_0" type="FakeQuantize" version="opset1">
			<data levels="256" auto_broadcast="numpy"/>
			<input>
				<port id="0">
					<dim>1</dim>
					<dim>32</dim>
					<dim>52</dim>
					<dim>52</dim>
				</port>
				<port id="1"/>
				<port id="2"/>
				<port id="3"/>
				<port id="4"/>
			</input>
			<output>
				<port id="5" precision="FP32">
					<dim>1</dim>
					<dim>32</dim>
					<dim>52</dim>
					<dim>52</dim>
				</port>
			</output>
		</layer>
		<layer id="382" name="Add_59" type="Add" version="opset1">
			<data auto_broadcast="numpy"/>
			<input>
				<port id="0">
					<dim>1</dim>
					<dim>32</dim>
					<dim>52</dim>
					<dim>52</dim>
				</port>
				<port id="1">
					<dim>1</dim>
					<dim>32</dim>
					<dim>52</dim>
					<dim>52</dim>
				</port>
			</input>
			<output>
				<port id="2" precision="FP32" names="423">
					<dim>1</dim>
					<dim>32</dim>
					<dim>52</dim>
					<dim>52</dim>
				</port>
			</output>
		</layer>
		<layer id="383" name="Conv_155/WithoutBiases/fq_input_0" type="FakeQuantize" version="opset1">
			<data levels="256" auto_broadcast="numpy"/>
			<input>
				<port id="0">
					<dim>1</dim>
					<dim>32</dim>
					<dim>52</dim>
					<dim>52</dim>
				</port>
				<port id="1"/>
				<port id="2"/>
				<port id="3"/>
				<port id="4"/>
			</input>
			<output>
				<port id="5" precision="FP32">
					<dim>1</dim>
					<dim>32</dim>
					<dim>52</dim>
					<dim>52</dim>
				</port>
			</output>
		</layer>
		<layer id="384" name="Conv_155/WithoutBiases/fq_weights_1/scale2282035742" type="Const" version="opset1">
			<data offset="69112" size="192" shape="48,1,1,1" element_type="f32"/>
			<output>
				<port id="0" precision="FP32">
					<dim>48</dim>
					<dim>1</dim>
					<dim>1</dim>
					<dim>1</dim>
				</port>
			</output>
		</layer>
		<layer id="385" name="neck.lateral_convs.0.conv.weight236720459/restored_convert/quantized2281234116" type="Const" version="opset1">
			<data offset="69304" size="1536" shape="48,32,1,1" element_type="i8"/>
			<output>
				<port id="0" precision="I8">
					<dim>48</dim>
					<dim>32</dim>
					<dim>1</dim>
					<dim>1</dim>
				</port>
			</output>
		</layer>
		<layer id="386" name="neck.lateral_convs.0.conv.weight236720459/restored_convert/quantized/to_f32" type="Convert" version="opset1">
			<data destination_type="f32"/>
			<input>
				<port id="0">
					<dim>48</dim>
					<dim>32</dim>
					<dim>1</dim>
					<dim>1</dim>
				</port>
			</input>
			<output>
				<port id="1" precision="FP32">
					<dim>48</dim>
					<dim>32</dim>
					<dim>1</dim>
					<dim>1</dim>
				</port>
			</output>
		</layer>
		<layer id="387" name="Conv_155/WithoutBiases/fq_weights_1/mulpiply_by_scale" type="Multiply" version="opset1">
			<data auto_broadcast="numpy"/>
			<input>
				<port id="0">
					<dim>48</dim>
					<dim>32</dim>
					<dim>1</dim>
					<dim>1</dim>
				</port>
				<port id="1">
					<dim>48</dim>
					<dim>1</dim>
					<dim>1</dim>
					<dim>1</dim>
				</port>
			</input>
			<output>
				<port id="2" precision="FP32">
					<dim>48</dim>
					<dim>32</dim>
					<dim>1</dim>
					<dim>1</dim>
				</port>
			</output>
		</layer>
		<layer id="388" name="Conv_155/WithoutBiases" type="Convolution" version="opset1">
			<data auto_pad="explicit" strides="1,1" dilations="1,1" pads_begin="0,0" pads_end="0,0"/>
			<input>
				<port id="0">
					<dim>1</dim>
					<dim>32</dim>
					<dim>52</dim>
					<dim>52</dim>
				</port>
				<port id="1">
					<dim>48</dim>
					<dim>32</dim>
					<dim>1</dim>
					<dim>1</dim>
				</port>
			</input>
			<output>
				<port id="2" precision="FP32">
					<dim>1</dim>
					<dim>48</dim>
					<dim>52</dim>
					<dim>52</dim>
				</port>
			</output>
		</layer>
		<layer id="389" name="Reshape_2034237035421" type="Const" version="opset1">
			<data offset="70840" size="96" shape="1,48,1,1" element_type="f16"/>
			<output>
				<port id="0" precision="FP16">
					<dim>1</dim>
					<dim>48</dim>
					<dim>1</dim>
					<dim>1</dim>
				</port>
			</output>
		</layer>
		<layer id="390" name="Reshape_2034237020460/restored_convert" type="Convert" version="opset1">
			<data destination_type="f32"/>
			<rt_info>
				<attribute name="decompression" version="0"/>
			</rt_info>
			<input>
				<port id="0">
					<dim>1</dim>
					<dim>48</dim>
					<dim>1</dim>
					<dim>1</dim>
				</port>
			</input>
			<output>
				<port id="1" precision="FP32">
					<dim>1</dim>
					<dim>48</dim>
					<dim>1</dim>
					<dim>1</dim>
				</port>
			</output>
		</layer>
		<layer id="391" name="Conv_155" type="Add" version="opset1">
			<data auto_broadcast="numpy"/>
			<input>
				<port id="0">
					<dim>1</dim>
					<dim>48</dim>
					<dim>52</dim>
					<dim>52</dim>
				</port>
				<port id="1">
					<dim>1</dim>
					<dim>48</dim>
					<dim>1</dim>
					<dim>1</dim>
				</port>
			</input>
			<output>
				<port id="2" precision="FP32" names="519">
					<dim>1</dim>
					<dim>48</dim>
					<dim>52</dim>
					<dim>52</dim>
				</port>
			</output>
		</layer>
		<layer id="392" name="Add_199/fq_input_0" type="FakeQuantize" version="opset1">
			<data levels="256" auto_broadcast="numpy"/>
			<input>
				<port id="0">
					<dim>1</dim>
					<dim>48</dim>
					<dim>52</dim>
					<dim>52</dim>
				</port>
				<port id="1"/>
				<port id="2"/>
				<port id="3"/>
				<port id="4"/>
			</input>
			<output>
				<port id="5" precision="FP32">
					<dim>1</dim>
					<dim>48</dim>
					<dim>52</dim>
					<dim>52</dim>
				</port>
			</output>
		</layer>
		<layer id="393" name="102501025434890" type="Const" version="opset1">
			<data offset="70936" size="4" shape="" element_type="f32"/>
			<output>
				<port id="0" precision="FP32"/>
			</output>
		</layer>
		<layer id="394" name="102511025535040" type="Const" version="opset1">
			<data offset="70940" size="4" shape="" element_type="f32"/>
			<output>
				<port id="0" precision="FP32"/>
			</output>
		</layer>
		<layer id="395" name="102521025634290" type="Const" version="opset1">
			<data offset="70936" size="4" shape="" element_type="f32"/>
			<output>
				<port id="0" precision="FP32"/>
			</output>
		</layer>
		<layer id="396" name="102531025734065" type="Const" version="opset1">
			<data offset="70940" size="4" shape="" element_type="f32"/>
			<output>
				<port id="0" precision="FP32"/>
			</output>
		</layer>
		<layer id="397" name="552263236018" type="Const" version="opset1">
			<data offset="70944" size="8" shape="2" element_type="f32"/>
			<output>
				<port id="0" precision="FP32" names="552">
					<dim>2</dim>
				</port>
			</output>
		</layer>
		<layer id="398" name="Shape_179" type="ShapeOf" version="opset3">
			<data output_type="i64"/>
			<input>
				<port id="0">
					<dim>1</dim>
					<dim>48</dim>
					<dim>52</dim>
					<dim>52</dim>
				</port>
			</input>
			<output>
				<port id="1" precision="I64" names="543,546">
					<dim>4</dim>
				</port>
			</output>
		</layer>
		<layer id="399" name="Constant_420292634" type="Const" version="opset1">
			<data offset="70952" size="8" shape="2" element_type="i32"/>
			<output>
				<port id="0" precision="I32">
					<dim>2</dim>
				</port>
			</output>
		</layer>
		<layer id="400" name="Constant_420302635" type="Const" version="opset1">
			<data offset="7976" size="8" shape="" element_type="i64"/>
			<output>
				<port id="0" precision="I64"/>
			</output>
		</layer>
		<layer id="401" name="Gather_42031" type="Gather" version="opset8">
			<data batch_dims="0"/>
			<input>
				<port id="0">
					<dim>4</dim>
				</port>
				<port id="1">
					<dim>2</dim>
				</port>
				<port id="2"/>
			</input>
			<output>
				<port id="3" precision="I64" names="551">
					<dim>2</dim>
				</port>
			</output>
		</layer>
		<layer id="402" name="Cast_189" type="Convert" version="opset1">
			<data destination_type="f32"/>
			<input>
				<port id="0">
					<dim>2</dim>
				</port>
			</input>
			<output>
				<port id="1" precision="FP32" names="553">
					<dim>2</dim>
				</port>
			</output>
		</layer>
		<layer id="403" name="9640964438415" type="Const" version="opset1">
			<data offset="70960" size="4" shape="" element_type="f32"/>
			<output>
				<port id="0" precision="FP32"/>
			</output>
		</layer>
		<layer id="404" name="9641964533972" type="Const" version="opset1">
			<data offset="70964" size="4" shape="" element_type="f32"/>
			<output>
				<port id="0" precision="FP32"/>
			</output>
		</layer>
		<layer id="405" name="9642964637287" type="Const" version="opset1">
			<data offset="70960" size="4" shape="" element_type="f32"/>
			<output>
				<port id="0" precision="FP32"/>
			</output>
		</layer>
		<layer id="406" name="9643964738343" type="Const" version="opset1">
			<data offset="70964" size="4" shape="" element_type="f32"/>
			<output>
				<port id="0" precision="FP32"/>
			</output>
		</layer>
		<layer id="407" name="108001080436414" type="Const" version="opset1">
			<data offset="70968" size="4" shape="" element_type="f32"/>
			<output>
				<port id="0" precision="FP32"/>
			</output>
		</layer>
		<layer id="408" name="108011080534152" type="Const" version="opset1">
			<data offset="70972" size="4" shape="" element_type="f32"/>
			<output>
				<port id="0" precision="FP32"/>
			</output>
		</layer>
		<layer id="409" name="108021080633924" type="Const" version="opset1">
			<data offset="70968" size="4" shape="" element_type="f32"/>
			<output>
				<port id="0" precision="FP32"/>
			</output>
		</layer>
		<layer id="410" name="108031080736213" type="Const" version="opset1">
			<data offset="70972" size="4" shape="" element_type="f32"/>
			<output>
				<port id="0" precision="FP32"/>
			</output>
		</layer>
		<layer id="411" name="9160916438025" type="Const" version="opset1">
			<data offset="70976" size="4" shape="" element_type="f32"/>
			<output>
				<port id="0" precision="FP32"/>
			</output>
		</layer>
		<layer id="412" name="9161916534845" type="Const" version="opset1">
			<data offset="70980" size="4" shape="" element_type="f32"/>
			<output>
				<port id="0" precision="FP32"/>
			</output>
		</layer>
		<layer id="413" name="9162916638121" type="Const" version="opset1">
			<data offset="70976" size="4" shape="" element_type="f32"/>
			<output>
				<port id="0" precision="FP32"/>
			</output>
		</layer>
		<layer id="414" name="9163916737815" type="Const" version="opset1">
			<data offset="70980" size="4" shape="" element_type="f32"/>
			<output>
				<port id="0" precision="FP32"/>
			</output>
		</layer>
		<layer id="415" name="8520852438646" type="Const" version="opset1">
			<data offset="10" size="4" shape="" element_type="f32"/>
			<output>
				<port id="0" precision="FP32"/>
			</output>
		</layer>
		<layer id="416" name="8521852537461" type="Const" version="opset1">
			<data offset="70984" size="4" shape="" element_type="f32"/>
			<output>
				<port id="0" precision="FP32"/>
			</output>
		</layer>
		<layer id="417" name="8522852637233" type="Const" version="opset1">
			<data offset="10" size="4" shape="" element_type="f32"/>
			<output>
				<port id="0" precision="FP32"/>
			</output>
		</layer>
		<layer id="418" name="8523852735856" type="Const" version="opset1">
			<data offset="70984" size="4" shape="" element_type="f32"/>
			<output>
				<port id="0" precision="FP32"/>
			</output>
		</layer>
		<layer id="419" name="8830883435397" type="Const" version="opset1">
			<data offset="70988" size="2304" shape="1,576,1,1" element_type="f32"/>
			<output>
				<port id="0" precision="FP32">
					<dim>1</dim>
					<dim>576</dim>
					<dim>1</dim>
					<dim>1</dim>
				</port>
			</output>
		</layer>
		<layer id="420" name="8831883537074" type="Const" version="opset1">
			<data offset="73292" size="2304" shape="1,576,1,1" element_type="f32"/>
			<output>
				<port id="0" precision="FP32">
					<dim>1</dim>
					<dim>576</dim>
					<dim>1</dim>
					<dim>1</dim>
				</port>
			</output>
		</layer>
		<layer id="421" name="8832883637584" type="Const" version="opset1">
			<data offset="70988" size="2304" shape="1,576,1,1" element_type="f32"/>
			<output>
				<port id="0" precision="FP32">
					<dim>1</dim>
					<dim>576</dim>
					<dim>1</dim>
					<dim>1</dim>
				</port>
			</output>
		</layer>
		<layer id="422" name="8833883738448" type="Const" version="opset1">
			<data offset="73292" size="2304" shape="1,576,1,1" element_type="f32"/>
			<output>
				<port id="0" precision="FP32">
					<dim>1</dim>
					<dim>576</dim>
					<dim>1</dim>
					<dim>1</dim>
				</port>
			</output>
		</layer>
		<layer id="423" name="9170917434101" type="Const" version="opset1">
			<data offset="75596" size="4" shape="" element_type="f32"/>
			<output>
				<port id="0" precision="FP32"/>
			</output>
		</layer>
		<layer id="424" name="9171917535562" type="Const" version="opset1">
			<data offset="75600" size="4" shape="" element_type="f32"/>
			<output>
				<port id="0" precision="FP32"/>
			</output>
		</layer>
		<layer id="425" name="9172917634218" type="Const" version="opset1">
			<data offset="75596" size="4" shape="" element_type="f32"/>
			<output>
				<port id="0" precision="FP32"/>
			</output>
		</layer>
		<layer id="426" name="9173917735436" type="Const" version="opset1">
			<data offset="75600" size="4" shape="" element_type="f32"/>
			<output>
				<port id="0" precision="FP32"/>
			</output>
		</layer>
		<layer id="427" name="9900990436360" type="Const" version="opset1">
			<data offset="75604" size="4" shape="" element_type="f32"/>
			<output>
				<port id="0" precision="FP32"/>
			</output>
		</layer>
		<layer id="428" name="9901990534404" type="Const" version="opset1">
			<data offset="75608" size="4" shape="" element_type="f32"/>
			<output>
				<port id="0" precision="FP32"/>
			</output>
		</layer>
		<layer id="429" name="9902990634764" type="Const" version="opset1">
			<data offset="75604" size="4" shape="" element_type="f32"/>
			<output>
				<port id="0" precision="FP32"/>
			</output>
		</layer>
		<layer id="430" name="9903990735094" type="Const" version="opset1">
			<data offset="75608" size="4" shape="" element_type="f32"/>
			<output>
				<port id="0" precision="FP32"/>
			</output>
		</layer>
		<layer id="431" name="8030803435442" type="Const" version="opset1">
			<data offset="10" size="4" shape="" element_type="f32"/>
			<output>
				<port id="0" precision="FP32"/>
			</output>
		</layer>
		<layer id="432" name="8031803538082" type="Const" version="opset1">
			<data offset="75612" size="4" shape="" element_type="f32"/>
			<output>
				<port id="0" precision="FP32"/>
			</output>
		</layer>
		<layer id="433" name="8032803634824" type="Const" version="opset1">
			<data offset="10" size="4" shape="" element_type="f32"/>
			<output>
				<port id="0" precision="FP32"/>
			</output>
		</layer>
		<layer id="434" name="8033803738562" type="Const" version="opset1">
			<data offset="75612" size="4" shape="" element_type="f32"/>
			<output>
				<port id="0" precision="FP32"/>
			</output>
		</layer>
		<layer id="435" name="8180818434818" type="Const" version="opset1">
			<data offset="70988" size="2304" shape="1,576,1,1" element_type="f32"/>
			<output>
				<port id="0" precision="FP32">
					<dim>1</dim>
					<dim>576</dim>
					<dim>1</dim>
					<dim>1</dim>
				</port>
			</output>
		</layer>
		<layer id="436" name="8181818538712" type="Const" version="opset1">
			<data offset="75616" size="2304" shape="1,576,1,1" element_type="f32"/>
			<output>
				<port id="0" precision="FP32">
					<dim>1</dim>
					<dim>576</dim>
					<dim>1</dim>
					<dim>1</dim>
				</port>
			</output>
		</layer>
		<layer id="437" name="8182818637413" type="Const" version="opset1">
			<data offset="70988" size="2304" shape="1,576,1,1" element_type="f32"/>
			<output>
				<port id="0" precision="FP32">
					<dim>1</dim>
					<dim>576</dim>
					<dim>1</dim>
					<dim>1</dim>
				</port>
			</output>
		</layer>
		<layer id="438" name="8183818735250" type="Const" version="opset1">
…
		<edge from-layer="2793" from-port="1" to-layer="2794" to-port="0"/>
		<edge from-layer="2688" from-port="0" to-layer="2794" to-port="1"/>
		<edge from-layer="2689" from-port="0" to-layer="2794" to-port="2"/>
		<edge from-layer="2690" from-port="0" to-layer="2794" to-port="3"/>
		<edge from-layer="2691" from-port="0" to-layer="2794" to-port="4"/>
		<edge from-layer="2794" from-port="5" to-layer="2795" to-port="0"/>
		<edge from-layer="1119" from-port="2" to-layer="2795" to-port="1"/>
		<edge from-layer="2796" from-port="0" to-layer="2797" to-port="0"/>
		<edge from-layer="2795" from-port="2" to-layer="2798" to-port="0"/>
		<edge from-layer="2797" from-port="1" to-layer="2798" to-port="1"/>
		<edge from-layer="2798" from-port="2" to-layer="2799" to-port="0"/>
		<edge from-layer="2799" from-port="1" to-layer="2802" to-port="0"/>
		<edge from-layer="2800" from-port="0" to-layer="2802" to-port="1"/>
		<edge from-layer="2801" from-port="0" to-layer="2802" to-port="2"/>
		<edge from-layer="2802" from-port="3" to-layer="2804" to-port="0"/>
		<edge from-layer="2803" from-port="0" to-layer="2804" to-port="1"/>
		<edge from-layer="2804" from-port="2" to-layer="2806" to-port="0"/>
		<edge from-layer="2805" from-port="0" to-layer="2806" to-port="1"/>
		<edge from-layer="2806" from-port="2" to-layer="2807" to-port="0"/>
		<edge from-layer="2685" from-port="0" to-layer="2807" to-port="1"/>
		<edge from-layer="2687" from-port="1" to-layer="2808" to-port="0"/>
		<edge from-layer="2807" from-port="2" to-layer="2808" to-port="1"/>
		<edge from-layer="2808" from-port="2" to-layer="2809" to-port="0"/>
		<edge from-layer="2809" from-port="1" to-layer="2811" to-port="0"/>
		<edge from-layer="2810" from-port="0" to-layer="2811" to-port="1"/>
		<edge from-layer="2811" from-port="2" to-layer="2812" to-port="0"/>
		<edge from-layer="2685" from-port="0" to-layer="2812" to-port="1"/>
		<edge from-layer="2812" from-port="2" to-layer="2813" to-port="0"/>
		<edge from-layer="2813" from-port="1" to-layer="2815" to-port="0"/>
		<edge from-layer="2814" from-port="0" to-layer="2815" to-port="1"/>
		<edge from-layer="2815" from-port="2" to-layer="2817" to-port="0"/>
		<edge from-layer="2816" from-port="0" to-layer="2818" to-port="0"/>
		<edge from-layer="2817" from-port="1" to-layer="2818" to-port="1"/>
		<edge from-layer="2815" from-port="2" to-layer="2819" to-port="0"/>
		<edge from-layer="2818" from-port="2" to-layer="2819" to-port="1"/>
		<edge from-layer="2821" from-port="0" to-layer="2822" to-port="0"/>
		<edge from-layer="2799" from-port="1" to-layer="2825" to-port="0"/>
		<edge from-layer="2823" from-port="0" to-layer="2825" to-port="1"/>
		<edge from-layer="2824" from-port="0" to-layer="2825" to-port="2"/>
		<edge from-layer="2825" from-port="3" to-layer="2827" to-port="0"/>
		<edge from-layer="2826" from-port="0" to-layer="2827" to-port="1"/>
		<edge from-layer="2827" from-port="2" to-layer="2829" to-port="0"/>
		<edge from-layer="2828" from-port="0" to-layer="2829" to-port="1"/>
		<edge from-layer="2829" from-port="2" to-layer="2830" to-port="0"/>
		<edge from-layer="2820" from-port="0" to-layer="2830" to-port="1"/>
		<edge from-layer="2822" from-port="1" to-layer="2831" to-port="0"/>
		<edge from-layer="2830" from-port="2" to-layer="2831" to-port="1"/>
		<edge from-layer="2831" from-port="2" to-layer="2832" to-port="0"/>
		<edge from-layer="2832" from-port="1" to-layer="2834" to-port="0"/>
		<edge from-layer="2833" from-port="0" to-layer="2834" to-port="1"/>
		<edge from-layer="2834" from-port="2" to-layer="2835" to-port="0"/>
		<edge from-layer="2820" from-port="0" to-layer="2835" to-port="1"/>
		<edge from-layer="2835" from-port="2" to-layer="2836" to-port="0"/>
		<edge from-layer="2836" from-port="1" to-layer="2838" to-port="0"/>
		<edge from-layer="2837" from-port="0" to-layer="2838" to-port="1"/>
		<edge from-layer="2838" from-port="2" to-layer="2839" to-port="0"/>
		<edge from-layer="2839" from-port="1" to-layer="2840" to-port="0"/>
		<edge from-layer="2817" from-port="1" to-layer="2840" to-port="1"/>
		<edge from-layer="2819" from-port="2" to-layer="2841" to-port="0"/>
		<edge from-layer="2840" from-port="2" to-layer="2841" to-port="1"/>
		<edge from-layer="2841" from-port="2" to-layer="2843" to-port="0"/>
		<edge from-layer="2842" from-port="0" to-layer="2843" to-port="1"/>
		<edge from-layer="2843" from-port="2" to-layer="2845" to-port="0"/>
		<edge from-layer="2844" from-port="0" to-layer="2845" to-port="1"/>
		<edge from-layer="2839" from-port="1" to-layer="2847" to-port="0"/>
		<edge from-layer="2846" from-port="0" to-layer="2847" to-port="1"/>
		<edge from-layer="2838" from-port="2" to-layer="2848" to-port="0"/>
		<edge from-layer="2847" from-port="2" to-layer="2848" to-port="1"/>
		<edge from-layer="2848" from-port="2" to-layer="2849" to-port="0"/>
		<edge from-layer="2840" from-port="2" to-layer="2849" to-port="1"/>
		<edge from-layer="2849" from-port="2" to-layer="2851" to-port="0"/>
		<edge from-layer="2850" from-port="0" to-layer="2851" to-port="1"/>
		<edge from-layer="2851" from-port="2" to-layer="2853" to-port="0"/>
		<edge from-layer="2852" from-port="0" to-layer="2853" to-port="1"/>
		<edge from-layer="2845" from-port="2" to-layer="2854" to-port="0"/>
		<edge from-layer="2853" from-port="2" to-layer="2854" to-port="1"/>
		<edge from-layer="2855" from-port="0" to-layer="2856" to-port="0"/>
		<edge from-layer="2854" from-port="2" to-layer="2857" to-port="0"/>
		<edge from-layer="2856" from-port="1" to-layer="2857" to-port="1"/>
		<edge from-layer="2857" from-port="2" to-layer="2860" to-port="0"/>
		<edge from-layer="2858" from-port="0" to-layer="2860" to-port="1"/>
		<edge from-layer="2859" from-port="0" to-layer="2860" to-port="2"/>
		<edge from-layer="2746" from-port="5" to-layer="2901" to-port="0"/>
		<edge from-layer="1229" from-port="2" to-layer="2901" to-port="1"/>
		<edge from-layer="2901" from-port="2" to-layer="2902" to-port="0"/>
		<edge from-layer="2900" from-port="0" to-layer="2902" to-port="1"/>
		<edge from-layer="2902" from-port="2" to-layer="2903" to-port="0"/>
		<edge from-layer="2896" from-port="0" to-layer="2903" to-port="1"/>
		<edge from-layer="2897" from-port="0" to-layer="2903" to-port="2"/>
		<edge from-layer="2898" from-port="0" to-layer="2903" to-port="3"/>
		<edge from-layer="2899" from-port="0" to-layer="2903" to-port="4"/>
		<edge from-layer="2903" from-port="5" to-layer="2904" to-port="0"/>
		<edge from-layer="2895" from-port="0" to-layer="2904" to-port="1"/>
		<edge from-layer="2905" from-port="0" to-layer="2906" to-port="0"/>
		<edge from-layer="2904" from-port="2" to-layer="2907" to-port="0"/>
		<edge from-layer="2906" from-port="1" to-layer="2907" to-port="1"/>
		<edge from-layer="2908" from-port="0" to-layer="2909" to-port="0"/>
		<edge from-layer="2907" from-port="2" to-layer="2910" to-port="0"/>
		<edge from-layer="2909" from-port="1" to-layer="2910" to-port="1"/>
		<edge from-layer="2910" from-port="2" to-layer="2911" to-port="0"/>
		<edge from-layer="2911" from-port="1" to-layer="2912" to-port="0"/>
		<edge from-layer="2891" from-port="0" to-layer="2912" to-port="1"/>
		<edge from-layer="2892" from-port="0" to-layer="2912" to-port="2"/>
		<edge from-layer="2893" from-port="0" to-layer="2912" to-port="3"/>
		<edge from-layer="2894" from-port="0" to-layer="2912" to-port="4"/>
		<edge from-layer="2912" from-port="5" to-layer="2913" to-port="0"/>
		<edge from-layer="1245" from-port="2" to-layer="2913" to-port="1"/>
		<edge from-layer="2913" from-port="2" to-layer="2914" to-port="0"/>
		<edge from-layer="2890" from-port="0" to-layer="2914" to-port="1"/>
		<edge from-layer="2914" from-port="2" to-layer="2915" to-port="0"/>
		<edge from-layer="2886" from-port="0" to-layer="2915" to-port="1"/>
		<edge from-layer="2887" from-port="0" to-layer="2915" to-port="2"/>
		<edge from-layer="2888" from-port="0" to-layer="2915" to-port="3"/>
		<edge from-layer="2889" from-port="0" to-layer="2915" to-port="4"/>
		<edge from-layer="2915" from-port="5" to-layer="2916" to-port="0"/>
		<edge from-layer="2885" from-port="0" to-layer="2916" to-port="1"/>
		<edge from-layer="2917" from-port="0" to-layer="2918" to-port="0"/>
		<edge from-layer="2916" from-port="2" to-layer="2919" to-port="0"/>
		<edge from-layer="2918" from-port="1" to-layer="2919" to-port="1"/>
		<edge from-layer="2920" from-port="0" to-layer="2921" to-port="0"/>
		<edge from-layer="2919" from-port="2" to-layer="2922" to-port="0"/>
		<edge from-layer="2921" from-port="1" to-layer="2922" to-port="1"/>
		<edge from-layer="2922" from-port="2" to-layer="2923" to-port="0"/>
		<edge from-layer="2923" from-port="1" to-layer="2924" to-port="0"/>
		<edge from-layer="2881" from-port="0" to-layer="2924" to-port="1"/>
		<edge from-layer="2882" from-port="0" to-layer="2924" to-port="2"/>
		<edge from-layer="2883" from-port="0" to-layer="2924" to-port="3"/>
		<edge from-layer="2884" from-port="0" to-layer="2924" to-port="4"/>
		<edge from-layer="2924" from-port="5" to-layer="2925" to-port="0"/>
		<edge from-layer="1261" from-port="2" to-layer="2925" to-port="1"/>
		<edge from-layer="2925" from-port="2" to-layer="2926" to-port="0"/>
		<edge from-layer="2880" from-port="0" to-layer="2926" to-port="1"/>
		<edge from-layer="2926" from-port="2" to-layer="2927" to-port="0"/>
		<edge from-layer="2876" from-port="0" to-layer="2927" to-port="1"/>
		<edge from-layer="2877" from-port="0" to-layer="2927" to-port="2"/>
		<edge from-layer="2878" from-port="0" to-layer="2927" to-port="3"/>
		<edge from-layer="2879" from-port="0" to-layer="2927" to-port="4"/>
		<edge from-layer="2927" from-port="5" to-layer="2928" to-port="0"/>
		<edge from-layer="2875" from-port="0" to-layer="2928" to-port="1"/>
		<edge from-layer="2929" from-port="0" to-layer="2930" to-port="0"/>
		<edge from-layer="2928" from-port="2" to-layer="2931" to-port="0"/>
		<edge from-layer="2930" from-port="1" to-layer="2931" to-port="1"/>
		<edge from-layer="2932" from-port="0" to-layer="2933" to-port="0"/>
		<edge from-layer="2931" from-port="2" to-layer="2934" to-port="0"/>
		<edge from-layer="2933" from-port="1" to-layer="2934" to-port="1"/>
		<edge from-layer="2934" from-port="2" to-layer="2935" to-port="0"/>
		<edge from-layer="2935" from-port="1" to-layer="2936" to-port="0"/>
		<edge from-layer="2871" from-port="0" to-layer="2936" to-port="1"/>
		<edge from-layer="2872" from-port="0" to-layer="2936" to-port="2"/>
		<edge from-layer="2873" from-port="0" to-layer="2936" to-port="3"/>
		<edge from-layer="2874" from-port="0" to-layer="2936" to-port="4"/>
		<edge from-layer="2936" from-port="5" to-layer="2937" to-port="0"/>
		<edge from-layer="1277" from-port="2" to-layer="2937" to-port="1"/>
		<edge from-layer="2937" from-port="2" to-layer="2938" to-port="0"/>
		<edge from-layer="2870" from-port="0" to-layer="2938" to-port="1"/>
		<edge from-layer="2938" from-port="2" to-layer="2939" to-port="0"/>
		<edge from-layer="2866" from-port="0" to-layer="2939" to-port="1"/>
		<edge from-layer="2867" from-port="0" to-layer="2939" to-port="2"/>
		<edge from-layer="2868" from-port="0" to-layer="2939" to-port="3"/>
		<edge from-layer="2869" from-port="0" to-layer="2939" to-port="4"/>
		<edge from-layer="2939" from-port="5" to-layer="2940" to-port="0"/>
		<edge from-layer="2865" from-port="0" to-layer="2940" to-port="1"/>
		<edge from-layer="2941" from-port="0" to-layer="2942" to-port="0"/>
		<edge from-layer="2940" from-port="2" to-layer="2943" to-port="0"/>
		<edge from-layer="2942" from-port="1" to-layer="2943" to-port="1"/>
		<edge from-layer="2944" from-port="0" to-layer="2945" to-port="0"/>
		<edge from-layer="2943" from-port="2" to-layer="2946" to-port="0"/>
		<edge from-layer="2945" from-port="1" to-layer="2946" to-port="1"/>
		<edge from-layer="2946" from-port="2" to-layer="2947" to-port="0"/>
		<edge from-layer="2947" from-port="1" to-layer="2948" to-port="0"/>
		<edge from-layer="2861" from-port="0" to-layer="2948" to-port="1"/>
		<edge from-layer="2862" from-port="0" to-layer="2948" to-port="2"/>
		<edge from-layer="2863" from-port="0" to-layer="2948" to-port="3"/>
		<edge from-layer="2864" from-port="0" to-layer="2948" to-port="4"/>
		<edge from-layer="2950" from-port="0" to-layer="2951" to-port="0"/>
		<edge from-layer="2951" from-port="1" to-layer="2952" to-port="0"/>
		<edge from-layer="2949" from-port="0" to-layer="2952" to-port="1"/>
		<edge from-layer="2948" from-port="5" to-layer="2953" to-port="0"/>
		<edge from-layer="2952" from-port="2" to-layer="2953" to-port="1"/>
		<edge from-layer="2954" from-port="0" to-layer="2955" to-port="0"/>
		<edge from-layer="2953" from-port="2" to-layer="2956" to-port="0"/>
		<edge from-layer="2955" from-port="1" to-layer="2956" to-port="1"/>
		<edge from-layer="2956" from-port="2" to-layer="2957" to-port="0"/>
		<edge from-layer="2957" from-port="1" to-layer="2960" to-port="0"/>
		<edge from-layer="2958" from-port="0" to-layer="2960" to-port="1"/>
		<edge from-layer="2959" from-port="0" to-layer="2960" to-port="2"/>
		<edge from-layer="2960" from-port="3" to-layer="2962" to-port="0"/>
		<edge from-layer="2961" from-port="0" to-layer="2962" to-port="1"/>
		<edge from-layer="2962" from-port="2" to-layer="2964" to-port="0"/>
		<edge from-layer="2963" from-port="0" to-layer="2964" to-port="1"/>
		<edge from-layer="2964" from-port="2" to-layer="2967" to-port="0"/>
		<edge from-layer="2965" from-port="0" to-layer="2967" to-port="1"/>
		<edge from-layer="2966" from-port="0" to-layer="2967" to-port="2"/>
		<edge from-layer="2860" from-port="3" to-layer="2968" to-port="0"/>
		<edge from-layer="2967" from-port="3" to-layer="2968" to-port="1"/>
		<edge from-layer="2968" from-port="2" to-layer="2970" to-port="0"/>
		<edge from-layer="2969" from-port="0" to-layer="2970" to-port="1"/>
		<edge from-layer="2971" from-port="0" to-layer="2972" to-port="0"/>
		<edge from-layer="2968" from-port="2" to-layer="2973" to-port="0"/>
		<edge from-layer="2972" from-port="1" to-layer="2974" to-port="0"/>
		<edge from-layer="2973" from-port="1" to-layer="2974" to-port="1"/>
		<edge from-layer="2974" from-port="2" to-layer="2976" to-port="0"/>
		<edge from-layer="2975" from-port="0" to-layer="2976" to-port="1"/>
		<edge from-layer="2970" from-port="2" to-layer="2977" to-port="0"/>
		<edge from-layer="2976" from-port="2" to-layer="2977" to-port="1"/>
		<edge from-layer="2977" from-port="2" to-layer="2979" to-port="0"/>
		<edge from-layer="2978" from-port="0" to-layer="2979" to-port="1"/>
		<edge from-layer="2979" from-port="2" to-layer="2981" to-port="0"/>
		<edge from-layer="2980" from-port="0" to-layer="2981" to-port="1"/>
		<edge from-layer="1327" from-port="4" to-layer="2984" to-port="0"/>
		<edge from-layer="2982" from-port="0" to-layer="2984" to-port="1"/>
		<edge from-layer="2983" from-port="0" to-layer="2984" to-port="2"/>
		<edge from-layer="2984" from-port="3" to-layer="2985" to-port="0"/>
		<edge from-layer="2985" from-port="1" to-layer="2987" to-port="0"/>
		<edge from-layer="2986" from-port="0" to-layer="2987" to-port="1"/>
		<edge from-layer="2979" from-port="2" to-layer="2988" to-port="0"/>
		<edge from-layer="2987" from-port="2" to-layer="2989" to-port="0"/>
		<edge from-layer="2988" from-port="1" to-layer="2989" to-port="1"/>
		<edge from-layer="2989" from-port="2" to-layer="2991" to-port="0"/>
		<edge from-layer="2990" from-port="0" to-layer="2991" to-port="1"/>
		<edge from-layer="2981" from-port="2" to-layer="2992" to-port="0"/>
		<edge from-layer="2991" from-port="2" to-layer="2992" to-port="1"/>
		<edge from-layer="2992" from-port="2" to-layer="2994" to-port="0"/>
		<edge from-layer="2993" from-port="0" to-layer="2994" to-port="1"/>
		<edge from-layer="2994" from-port="2" to-layer="2996" to-port="0"/>
		<edge from-layer="2995" from-port="0" to-layer="2996" to-port="1"/>
		<edge from-layer="2857" from-port="2" to-layer="2999" to-port="0"/>
		<edge from-layer="2997" from-port="0" to-layer="2999" to-port="1"/>
		<edge from-layer="2998" from-port="0" to-layer="2999" to-port="2"/>
		<edge from-layer="2964" from-port="2" to-layer="3002" to-port="0"/>
		<edge from-layer="3000" from-port="0" to-layer="3002" to-port="1"/>
		<edge from-layer="3001" from-port="0" to-layer="3002" to-port="2"/>
		<edge from-layer="2999" from-port="3" to-layer="3003" to-port="0"/>
		<edge from-layer="3002" from-port="3" to-layer="3003" to-port="1"/>
		<edge from-layer="3003" from-port="2" to-layer="3005" to-port="0"/>
		<edge from-layer="3004" from-port="0" to-layer="3005" to-port="1"/>
		<edge from-layer="3006" from-port="0" to-layer="3007" to-port="0"/>
		<edge from-layer="3003" from-port="2" to-layer="3008" to-port="0"/>
		<edge from-layer="3007" from-port="1" to-layer="3009" to-port="0"/>
		<edge from-layer="3008" from-port="1" to-layer="3009" to-port="1"/>
		<edge from-layer="3009" from-port="2" to-layer="3011" to-port="0"/>
		<edge from-layer="3010" from-port="0" to-layer="3011" to-port="1"/>
		<edge from-layer="3005" from-port="2" to-layer="3012" to-port="0"/>
		<edge from-layer="3011" from-port="2" to-layer="3012" to-port="1"/>
		<edge from-layer="3012" from-port="2" to-layer="3014" to-port="0"/>
		<edge from-layer="3013" from-port="0" to-layer="3014" to-port="1"/>
		<edge from-layer="3014" from-port="2" to-layer="3016" to-port="0"/>
		<edge from-layer="3015" from-port="0" to-layer="3016" to-port="1"/>
		<edge from-layer="1327" from-port="4" to-layer="3019" to-port="0"/>
		<edge from-layer="3017" from-port="0" to-layer="3019" to-port="1"/>
		<edge from-layer="3018" from-port="0" to-layer="3019" to-port="2"/>
		<edge from-layer="3019" from-port="3" to-layer="3020" to-port="0"/>
		<edge from-layer="3020" from-port="1" to-layer="3022" to-port="0"/>
		<edge from-layer="3021" from-port="0" to-layer="3022" to-port="1"/>
		<edge from-layer="3014" from-port="2" to-layer="3023" to-port="0"/>
		<edge from-layer="3022" from-port="2" to-layer="3024" to-port="0"/>
		<edge from-layer="3023" from-port="1" to-layer="3024" to-port="1"/>
		<edge from-layer="3024" from-port="2" to-layer="3026" to-port="0"/>
		<edge from-layer="3025" from-port="0" to-layer="3026" to-port="1"/>
		<edge from-layer="3016" from-port="2" to-layer="3027" to-port="0"/>
		<edge from-layer="3026" from-port="2" to-layer="3027" to-port="1"/>
		<edge from-layer="3027" from-port="2" to-layer="3029" to-port="0"/>
		<edge from-layer="3028" from-port="0" to-layer="3029" to-port="1"/>
		<edge from-layer="3029" from-port="2" to-layer="3031" to-port="0"/>
		<edge from-layer="3030" from-port="0" to-layer="3031" to-port="1"/>
		<edge from-layer="2857" from-port="2" to-layer="3034" to-port="0"/>
		<edge from-layer="3032" from-port="0" to-layer="3034" to-port="1"/>
		<edge from-layer="3033" from-port="0" to-layer="3034" to-port="2"/>
		<edge from-layer="2964" from-port="2" to-layer="3037" to-port="0"/>
		<edge from-layer="3035" from-port="0" to-layer="3037" to-port="1"/>
		<edge from-layer="3036" from-port="0" to-layer="3037" to-port="2"/>
		<edge from-layer="3034" from-port="3" to-layer="3038" to-port="0"/>
		<edge from-layer="3037" from-port="3" to-layer="3038" to-port="1"/>
		<edge from-layer="3038" from-port="2" to-layer="3040" to-port="0"/>
		<edge from-layer="3039" from-port="0" to-layer="3040" to-port="1"/>
		<edge from-layer="3041" from-port="0" to-layer="3042" to-port="0"/>
		<edge from-layer="3038" from-port="2" to-layer="3043" to-port="0"/>
		<edge from-layer="3042" from-port="1" to-layer="3044" to-port="0"/>
		<edge from-layer="3043" from-port="1" to-layer="3044" to-port="1"/>
		<edge from-layer="3044" from-port="2" to-layer="3046" to-port="0"/>
		<edge from-layer="3045" from-port="0" to-layer="3046" to-port="1"/>
		<edge from-layer="3040" from-port="2" to-layer="3047" to-port="0"/>
		<edge from-layer="3046" from-port="2" to-layer="3047" to-port="1"/>
		<edge from-layer="3047" from-port="2" to-layer="3049" to-port="0"/>
		<edge from-layer="3048" from-port="0" to-layer="3049" to-port="1"/>
		<edge from-layer="3049" from-port="2" to-layer="3051" to-port="0"/>
		<edge from-layer="3050" from-port="0" to-layer="3051" to-port="1"/>
		<edge from-layer="1327" from-port="4" to-layer="3054" to-port="0"/>
		<edge from-layer="3052" from-port="0" to-layer="3054" to-port="1"/>
		<edge from-layer="3053" from-port="0" to-layer="3054" to-port="2"/>
		<edge from-layer="3054" from-port="3" to-layer="3055" to-port="0"/>
		<edge from-layer="3055" from-port="1" to-layer="3057" to-port="0"/>
		<edge from-layer="3056" from-port="0" to-layer="3057" to-port="1"/>
		<edge from-layer="3049" from-port="2" to-layer="3058" to-port="0"/>
		<edge from-layer="3057" from-port="2" to-layer="3059" to-port="0"/>
		<edge from-layer="3058" from-port="1" to-layer="3059" to-port="1"/>
		<edge from-layer="3059" from-port="2" to-layer="3061" to-port="0"/>
		<edge from-layer="3060" from-port="0" to-layer="3061" to-port="1"/>
		<edge from-layer="3051" from-port="2" to-layer="3062" to-port="0"/>
		<edge from-layer="3061" from-port="2" to-layer="3062" to-port="1"/>
		<edge from-layer="3062" from-port="2" to-layer="3064" to-port="0"/>
		<edge from-layer="3063" from-port="0" to-layer="3064" to-port="1"/>
		<edge from-layer="3064" from-port="2" to-layer="3066" to-port="0"/>
		<edge from-layer="3065" from-port="0" to-layer="3066" to-port="1"/>
		<edge from-layer="2857" from-port="2" to-layer="3069" to-port="0"/>
		<edge from-layer="3067" from-port="0" to-layer="3069" to-port="1"/>
		<edge from-layer="3068" from-port="0" to-layer="3069" to-port="2"/>
		<edge from-layer="2964" from-port="2" to-layer="3072" to-port="0"/>
		<edge from-layer="3070" from-port="0" to-layer="3072" to-port="1"/>
		<edge from-layer="3071" from-port="0" to-layer="3072" to-port="2"/>
		<edge from-layer="3069" from-port="3" to-layer="3073" to-port="0"/>
		<edge from-layer="3072" from-port="3" to-layer="3073" to-port="1"/>
		<edge from-layer="3073" from-port="2" to-layer="3075" to-port="0"/>
		<edge from-layer="3074" from-port="0" to-layer="3075" to-port="1"/>
		<edge from-layer="3076" from-port="0" to-layer="3077" to-port="0"/>
		<edge from-layer="3073" from-port="2" to-layer="3078" to-port="0"/>
		<edge from-layer="3077" from-port="1" to-layer="3079" to-port="0"/>
		<edge from-layer="3078" from-port="1" to-layer="3079" to-port="1"/>
		<edge from-layer="3079" from-port="2" to-layer="3081" to-port="0"/>
		<edge from-layer="3080" from-port="0" to-layer="3081" to-port="1"/>
		<edge from-layer="3075" from-port="2" to-layer="3082" to-port="0"/>
		<edge from-layer="3081" from-port="2" to-layer="3082" to-port="1"/>
		<edge from-layer="3082" from-port="2" to-layer="3084" to-port="0"/>
		<edge from-layer="3083" from-port="0" to-layer="3084" to-port="1"/>
		<edge from-layer="3084" from-port="2" to-layer="3086" to-port="0"/>
		<edge from-layer="3085" from-port="0" to-layer="3086" to-port="1"/>
		<edge from-layer="1327" from-port="4" to-layer="3089" to-port="0"/>
		<edge from-layer="3087" from-port="0" to-layer="3089" to-port="1"/>
		<edge from-layer="3088" from-port="0" to-layer="3089" to-port="2"/>
		<edge from-layer="3089" from-port="3" to-layer="3090" to-port="0"/>
		<edge from-layer="3090" from-port="1" to-layer="3092" to-port="0"/>
		<edge from-layer="3091" from-port="0" to-layer="3092" to-port="1"/>
		<edge from-layer="3084" from-port="2" to-layer="3093" to-port="0"/>
		<edge from-layer="3092" from-port="2" to-layer="3094" to-port="0"/>
		<edge from-layer="3093" from-port="1" to-layer="3094" to-port="1"/>
		<edge from-layer="3094" from-port="2" to-layer="3096" to-port="0"/>
		<edge from-layer="3095" from-port="0" to-layer="3096" to-port="1"/>
		<edge from-layer="3086" from-port="2" to-layer="3097" to-port="0"/>
		<edge from-layer="3096" from-port="2" to-layer="3097" to-port="1"/>
		<edge from-layer="3097" from-port="2" to-layer="3099" to-port="0"/>
		<edge from-layer="3098" from-port="0" to-layer="3099" to-port="1"/>
		<edge from-layer="3099" from-port="2" to-layer="3101" to-port="0"/>
		<edge from-layer="3100" from-port="0" to-layer="3101" to-port="1"/>
		<edge from-layer="2996" from-port="2" to-layer="3102" to-port="0"/>
		<edge from-layer="3031" from-port="2" to-layer="3102" to-port="1"/>
		<edge from-layer="3066" from-port="2" to-layer="3102" to-port="2"/>
		<edge from-layer="3101" from-port="2" to-layer="3102" to-port="3"/>
		<edge from-layer="1448" from-port="4" to-layer="3103" to-port="0"/>
		<edge from-layer="1860" from-port="4" to-layer="3103" to-port="1"/>
		<edge from-layer="2272" from-port="4" to-layer="3103" to-port="2"/>
		<edge from-layer="2684" from-port="4" to-layer="3103" to-port="3"/>
		<edge from-layer="3102" from-port="4" to-layer="3103" to-port="4"/>
		<edge from-layer="3103" from-port="5" to-layer="3105" to-port="0"/>
		<edge from-layer="3104" from-port="0" to-layer="3105" to-port="1"/>
		<edge from-layer="1123" from-port="2" to-layer="3108" to-port="0"/>
		<edge from-layer="3106" from-port="0" to-layer="3108" to-port="1"/>
		<edge from-layer="3107" from-port="0" to-layer="3108" to-port="2"/>
		<edge from-layer="3108" from-port="3" to-layer="3109" to-port="0"/>
		<edge from-layer="3109" from-port="1" to-layer="3112" to-port="0"/>
		<edge from-layer="3110" from-port="0" to-layer="3112" to-port="1"/>
		<edge from-layer="3111" from-port="0" to-layer="3112" to-port="2"/>
		<edge from-layer="3108" from-port="3" to-layer="3113" to-port="0"/>
		<edge from-layer="3112" from-port="3" to-layer="3113" to-port="1"/>
		<edge from-layer="3113" from-port="2" to-layer="3115" to-port="0"/>
		<edge from-layer="3114" from-port="0" to-layer="3115" to-port="1"/>
		<edge from-layer="3115" from-port="2" to-layer="3116" to-port="0"/>
		<edge from-layer="1556" from-port="2" to-layer="3119" to-port="0"/>
		<edge from-layer="3117" from-port="0" to-layer="3119" to-port="1"/>
		<edge from-layer="3118" from-port="0" to-layer="3119" to-port="2"/>
		<edge from-layer="3119" from-port="3" to-layer="3120" to-port="0"/>
		<edge from-layer="3120" from-port="1" to-layer="3123" to-port="0"/>
		<edge from-layer="3121" from-port="0" to-layer="3123" to-port="1"/>
		<edge from-layer="3122" from-port="0" to-layer="3123" to-port="2"/>
		<edge from-layer="3119" from-port="3" to-layer="3124" to-port="0"/>
		<edge from-layer="3123" from-port="3" to-layer="3124" to-port="1"/>
		<edge from-layer="3124" from-port="2" to-layer="3126" to-port="0"/>
		<edge from-layer="3125" from-port="0" to-layer="3126" to-port="1"/>
		<edge from-layer="3126" from-port="2" to-layer="3127" to-port="0"/>
		<edge from-layer="1968" from-port="2" to-layer="3130" to-port="0"/>
		<edge from-layer="3128" from-port="0" to-layer="3130" to-port="1"/>
		<edge from-layer="3129" from-port="0" to-layer="3130" to-port="2"/>
		<edge from-layer="3130" from-port="3" to-layer="3131" to-port="0"/>
		<edge from-layer="3131" from-port="1" to-layer="3134" to-port="0"/>
		<edge from-layer="3132" from-port="0" to-layer="3134" to-port="1"/>
		<edge from-layer="3133" from-port="0" to-layer="3134" to-port="2"/>
		<edge from-layer="3130" from-port="3" to-layer="3135" to-port="0"/>
		<edge from-layer="3134" from-port="3" to-layer="3135" to-port="1"/>
		<edge from-layer="3135" from-port="2" to-layer="3137" to-port="0"/>
		<edge from-layer="3136" from-port="0" to-layer="3137" to-port="1"/>
		<edge from-layer="3137" from-port="2" to-layer="3138" to-port="0"/>
		<edge from-layer="2380" from-port="2" to-layer="3141" to-port="0"/>
		<edge from-layer="3139" from-port="0" to-layer="3141" to-port="1"/>
		<edge from-layer="3140" from-port="0" to-layer="3141" to-port="2"/>
		<edge from-layer="3141" from-port="3" to-layer="3142" to-port="0"/>
		<edge from-layer="3142" from-port="1" to-layer="3145" to-port="0"/>
		<edge from-layer="3143" from-port="0" to-layer="3145" to-port="1"/>
		<edge from-layer="3144" from-port="0" to-layer="3145" to-port="2"/>
		<edge from-layer="3141" from-port="3" to-layer="3146" to-port="0"/>
		<edge from-layer="3145" from-port="3" to-layer="3146" to-port="1"/>
		<edge from-layer="3146" from-port="2" to-layer="3148" to-port="0"/>
		<edge from-layer="3147" from-port="0" to-layer="3148" to-port="1"/>
		<edge from-layer="3148" from-port="2" to-layer="3149" to-port="0"/>
		<edge from-layer="2798" from-port="2" to-layer="3152" to-port="0"/>
		<edge from-layer="3150" from-port="0" to-layer="3152" to-port="1"/>
		<edge from-layer="3151" from-port="0" to-layer="3152" to-port="2"/>
		<edge from-layer="3152" from-port="3" to-layer="3153" to-port="0"/>
		<edge from-layer="3153" from-port="1" to-layer="3156" to-port="0"/>
		<edge from-layer="3154" from-port="0" to-layer="3156" to-port="1"/>
		<edge from-layer="3155" from-port="0" to-layer="3156" to-port="2"/>
		<edge from-layer="3152" from-port="3" to-layer="3157" to-port="0"/>
		<edge from-layer="3156" from-port="3" to-layer="3157" to-port="1"/>
		<edge from-layer="3157" from-port="2" to-layer="3159" to-port="0"/>
		<edge from-layer="3158" from-port="0" to-layer="3159" to-port="1"/>
		<edge from-layer="3159" from-port="2" to-layer="3160" to-port="0"/>
		<edge from-layer="3116" from-port="1" to-layer="3161" to-port="0"/>
		<edge from-layer="3127" from-port="1" to-layer="3161" to-port="1"/>
		<edge from-layer="3138" from-port="1" to-layer="3161" to-port="2"/>
		<edge from-layer="3149" from-port="1" to-layer="3161" to-port="3"/>
		<edge from-layer="3160" from-port="1" to-layer="3161" to-port="4"/>
		<edge from-layer="3163" from-port="0" to-layer="3164" to-port="0"/>
		<edge from-layer="3164" from-port="1" to-layer="3165" to-port="0"/>
		<edge from-layer="3162" from-port="0" to-layer="3165" to-port="1"/>
		<edge from-layer="1115" from-port="5" to-layer="3166" to-port="0"/>
		<edge from-layer="3165" from-port="2" to-layer="3166" to-port="1"/>
		<edge from-layer="3167" from-port="0" to-layer="3168" to-port="0"/>
		<edge from-layer="3166" from-port="2" to-layer="3169" to-port="0"/>
		<edge from-layer="3168" from-port="1" to-layer="3169" to-port="1"/>
		<edge from-layer="3169" from-port="2" to-layer="3172" to-port="0"/>
		<edge from-layer="3170" from-port="0" to-layer="3172" to-port="1"/>
		<edge from-layer="3171" from-port="0" to-layer="3172" to-port="2"/>
		<edge from-layer="3172" from-port="3" to-layer="3173" to-port="0"/>
		<edge from-layer="3173" from-port="1" to-layer="3176" to-port="0"/>
		<edge from-layer="3174" from-port="0" to-layer="3176" to-port="1"/>
		<edge from-layer="3175" from-port="0" to-layer="3176" to-port="2"/>
		<edge from-layer="3172" from-port="3" to-layer="3177" to-port="0"/>
		<edge from-layer="3176" from-port="3" to-layer="3177" to-port="1"/>
		<edge from-layer="3177" from-port="2" to-layer="3179" to-port="0"/>
		<edge from-layer="3178" from-port="0" to-layer="3179" to-port="1"/>
		<edge from-layer="3179" from-port="2" to-layer="3180" to-port="0"/>
		<edge from-layer="1552" from-port="5" to-layer="3181" to-port="0"/>
		<edge from-layer="3165" from-port="2" to-layer="3181" to-port="1"/>
		<edge from-layer="3182" from-port="0" to-layer="3183" to-port="0"/>
		<edge from-layer="3181" from-port="2" to-layer="3184" to-port="0"/>
		<edge from-layer="3183" from-port="1" to-layer="3184" to-port="1"/>
		<edge from-layer="3184" from-port="2" to-layer="3187" to-port="0"/>
		<edge from-layer="3185" from-port="0" to-layer="3187" to-port="1"/>
		<edge from-layer="3186" from-port="0" to-layer="3187" to-port="2"/>
		<edge from-layer="3187" from-port="3" to-layer="3188" to-port="0"/>
		<edge from-layer="3188" from-port="1" to-layer="3191" to-port="0"/>
		<edge from-layer="3189" from-port="0" to-layer="3191" to-port="1"/>
		<edge from-layer="3190" from-port="0" to-layer="3191" to-port="2"/>
		<edge from-layer="3187" from-port="3" to-layer="3192" to-port="0"/>
		<edge from-layer="3191" from-port="3" to-layer="3192" to-port="1"/>
		<edge from-layer="3192" from-port="2" to-layer="3194" to-port="0"/>
		<edge from-layer="3193" from-port="0" to-layer="3194" to-port="1"/>
		<edge from-layer="3194" from-port="2" to-layer="3195" to-port="0"/>
		<edge from-layer="1964" from-port="5" to-layer="3196" to-port="0"/>
		<edge from-layer="3165" from-port="2" to-layer="3196" to-port="1"/>
		<edge from-layer="3197" from-port="0" to-layer="3198" to-port="0"/>
		<edge from-layer="3196" from-port="2" to-layer="3199" to-port="0"/>
		<edge from-layer="3198" from-port="1" to-layer="3199" to-port="1"/>
		<edge from-layer="3199" from-port="2" to-layer="3202" to-port="0"/>
		<edge from-layer="3200" from-port="0" to-layer="3202" to-port="1"/>
		<edge from-layer="3201" from-port="0" to-layer="3202" to-port="2"/>
		<edge from-layer="3202" from-port="3" to-layer="3203" to-port="0"/>
		<edge from-layer="3203" from-port="1" to-layer="3206" to-port="0"/>
		<edge from-layer="3204" from-port="0" to-layer="3206" to-port="1"/>
		<edge from-layer="3205" from-port="0" to-layer="3206" to-port="2"/>
		<edge from-layer="3202" from-port="3" to-layer="3207" to-port="0"/>
		<edge from-layer="3206" from-port="3" to-layer="3207" to-port="1"/>
		<edge from-layer="3207" from-port="2" to-layer="3209" to-port="0"/>
		<edge from-layer="3208" from-port="0" to-layer="3209" to-port="1"/>
		<edge from-layer="3209" from-port="2" to-layer="3210" to-port="0"/>
		<edge from-layer="2376" from-port="5" to-layer="3211" to-port="0"/>
		<edge from-layer="3165" from-port="2" to-layer="3211" to-port="1"/>
		<edge from-layer="3212" from-port="0" to-layer="3213" to-port="0"/>
		<edge from-layer="3211" from-port="2" to-layer="3214" to-port="0"/>
		<edge from-layer="3213" from-port="1" to-layer="3214" to-port="1"/>
		<edge from-layer="3214" from-port="2" to-layer="3217" to-port="0"/>
		<edge from-layer="3215" from-port="0" to-layer="3217" to-port="1"/>
		<edge from-layer="3216" from-port="0" to-layer="3217" to-port="2"/>
		<edge from-layer="3217" from-port="3" to-layer="3218" to-port="0"/>
		<edge from-layer="3218" from-port="1" to-layer="3221" to-port="0"/>
		<edge from-layer="3219" from-port="0" to-layer="3221" to-port="1"/>
		<edge from-layer="3220" from-port="0" to-layer="3221" to-port="2"/>
		<edge from-layer="3217" from-port="3" to-layer="3222" to-port="0"/>
		<edge from-layer="3221" from-port="3" to-layer="3222" to-port="1"/>
		<edge from-layer="3222" from-port="2" to-layer="3224" to-port="0"/>
		<edge from-layer="3223" from-port="0" to-layer="3224" to-port="1"/>
		<edge from-layer="3224" from-port="2" to-layer="3225" to-port="0"/>
		<edge from-layer="2794" from-port="5" to-layer="3226" to-port="0"/>
		<edge from-layer="3165" from-port="2" to-layer="3226" to-port="1"/>
		<edge from-layer="3227" from-port="0" to-layer="3228" to-port="0"/>
		<edge from-layer="3226" from-port="2" to-layer="3229" to-port="0"/>
		<edge from-layer="3228" from-port="1" to-layer="3229" to-port="1"/>
		<edge from-layer="3229" from-port="2" to-layer="3232" to-port="0"/>
		<edge from-layer="3230" from-port="0" to-layer="3232" to-port="1"/>
		<edge from-layer="3231" from-port="0" to-layer="3232" to-port="2"/>
		<edge from-layer="3232" from-port="3" to-layer="3233" to-port="0"/>
		<edge from-layer="3233" from-port="1" to-layer="3236" to-port="0"/>
		<edge from-layer="3234" from-port="0" to-layer="3236" to-port="1"/>
		<edge from-layer="3235" from-port="0" to-layer="3236" to-port="2"/>
		<edge from-layer="3232" from-port="3" to-layer="3237" to-port="0"/>
		<edge from-layer="3236" from-port="3" to-layer="3237" to-port="1"/>
		<edge from-layer="3237" from-port="2" to-layer="3239" to-port="0"/>
		<edge from-layer="3238" from-port="0" to-layer="3239" to-port="1"/>
		<edge from-layer="3239" from-port="2" to-layer="3240" to-port="0"/>
		<edge from-layer="3180" from-port="1" to-layer="3241" to-port="0"/>
		<edge from-layer="3195" from-port="1" to-layer="3241" to-port="1"/>
		<edge from-layer="3210" from-port="1" to-layer="3241" to-port="2"/>
		<edge from-layer="3225" from-port="1" to-layer="3241" to-port="3"/>
		<edge from-layer="3240" from-port="1" to-layer="3241" to-port="4"/>
		<edge from-layer="3241" from-port="5" to-layer="3242" to-port="0"/>
		<edge from-layer="3242" from-port="1" to-layer="3244" to-port="0"/>
		<edge from-layer="3243" from-port="0" to-layer="3244" to-port="1"/>
		<edge from-layer="3241" from-port="5" to-layer="3245" to-port="0"/>
		<edge from-layer="3244" from-port="2" to-layer="3245" to-port="1"/>
		<edge from-layer="3161" from-port="5" to-layer="3246" to-port="0"/>
		<edge from-layer="3245" from-port="2" to-layer="3246" to-port="1"/>
		<edge from-layer="3246" from-port="2" to-layer="3247" to-port="0"/>
		<edge from-layer="3247" from-port="1" to-layer="3249" to-port="0"/>
		<edge from-layer="3248" from-port="0" to-layer="3249" to-port="1"/>
		<edge from-layer="3249" from-port="2" to-layer="3251" to-port="0"/>
		<edge from-layer="3250" from-port="0" to-layer="3251" to-port="1"/>
		<edge from-layer="3251" from-port="2" to-layer="3253" to-port="0"/>
		<edge from-layer="3252" from-port="0" to-layer="3253" to-port="1"/>
		<edge from-layer="3253" from-port="2" to-layer="3255" to-port="0"/>
		<edge from-layer="3254" from-port="0" to-layer="3255" to-port="1"/>
		<edge from-layer="3251" from-port="2" to-layer="3255" to-port="2"/>
		<edge from-layer="3105" from-port="2" to-layer="3256" to-port="0"/>
		<edge from-layer="3255" from-port="3" to-layer="3256" to-port="1"/>
		<edge from-layer="3256" from-port="2" to-layer="3258" to-port="0"/>
		<edge from-layer="3257" from-port="0" to-layer="3258" to-port="1"/>
		<edge from-layer="3247" from-port="1" to-layer="3262" to-port="0"/>
		<edge from-layer="3260" from-port="0" to-layer="3262" to-port="1"/>
		<edge from-layer="3261" from-port="0" to-layer="3262" to-port="2"/>
		<edge from-layer="3259" from-port="0" to-layer="3263" to-port="0"/>
		<edge from-layer="3262" from-port="3" to-layer="3263" to-port="1"/>
		<edge from-layer="3263" from-port="2" to-layer="3264" to-port="0"/>
		<edge from-layer="3264" from-port="1" to-layer="3266" to-port="0"/>
		<edge from-layer="3265" from-port="0" to-layer="3266" to-port="1"/>
		<edge from-layer="3266" from-port="2" to-layer="3268" to-port="0"/>
		<edge from-layer="3267" from-port="0" to-layer="3268" to-port="1"/>
		<edge from-layer="3268" from-port="2" to-layer="3269" to-port="0"/>
		<edge from-layer="3247" from-port="1" to-layer="3269" to-port="1"/>
		<edge from-layer="3269" from-port="2" to-layer="3271" to-port="0"/>
		<edge from-layer="3270" from-port="0" to-layer="3271" to-port="1"/>
		<edge from-layer="3271" from-port="2" to-layer="3272" to-port="0"/>
		<edge from-layer="3258" from-port="2" to-layer="3274" to-port="0"/>
		<edge from-layer="3273" from-port="0" to-layer="3274" to-port="1"/>
		<edge from-layer="3275" from-port="0" to-layer="3276" to-port="0"/>
		<edge from-layer="3274" from-port="2" to-layer="3277" to-port="0"/>
		<edge from-layer="3276" from-port="1" to-layer="3277" to-port="1"/>
		<edge from-layer="3272" from-port="1" to-layer="3278" to-port="0"/>
		<edge from-layer="3277" from-port="2" to-layer="3278" to-port="1"/>
		<edge from-layer="3278" from-port="2" to-layer="3280" to-port="0"/>
		<edge from-layer="3279" from-port="0" to-layer="3280" to-port="1"/>
		<edge from-layer="3258" from-port="2" to-layer="3281" to-port="0"/>
		<edge from-layer="3280" from-port="2" to-layer="3281" to-port="1"/>
		<edge from-layer="3246" from-port="2" to-layer="3283" to-port="0"/>
		<edge from-layer="3282" from-port="0" to-layer="3283" to-port="1"/>
		<edge from-layer="3283" from-port="2" to-layer="3285" to-port="0"/>
		<edge from-layer="3284" from-port="0" to-layer="3285" to-port="1"/>
		<edge from-layer="3281" from-port="2" to-layer="3286" to-port="0"/>
		<edge from-layer="3285" from-port="2" to-layer="3286" to-port="1"/>
		<edge from-layer="3286" from-port="2" to-layer="3290" to-port="0"/>
		<edge from-layer="3287" from-port="0" to-layer="3290" to-port="1"/>
		<edge from-layer="3288" from-port="0" to-layer="3290" to-port="2"/>
		<edge from-layer="3289" from-port="0" to-layer="3290" to-port="3"/>
		<edge from-layer="3290" from-port="4" to-layer="3292" to-port="0"/>
		<edge from-layer="3291" from-port="0" to-layer="3292" to-port="1"/>
		<edge from-layer="3286" from-port="2" to-layer="3296" to-port="0"/>
		<edge from-layer="3293" from-port="0" to-layer="3296" to-port="1"/>
		<edge from-layer="3294" from-port="0" to-layer="3296" to-port="2"/>
		<edge from-layer="3295" from-port="0" to-layer="3296" to-port="3"/>
		<edge from-layer="3296" from-port="4" to-layer="3298" to-port="0"/>
		<edge from-layer="3297" from-port="0" to-layer="3298" to-port="1"/>
		<edge from-layer="3299" from-port="0" to-layer="3300" to-port="0"/>
		<edge from-layer="3301" from-port="0" to-layer="3302" to-port="0"/>
		<edge from-layer="3292" from-port="2" to-layer="3304" to-port="0"/>
		<edge from-layer="3298" from-port="2" to-layer="3304" to-port="1"/>
		<edge from-layer="3303" from-port="0" to-layer="3304" to-port="2"/>
		<edge from-layer="3300" from-port="1" to-layer="3304" to-port="3"/>
		<edge from-layer="3302" from-port="1" to-layer="3304" to-port="4"/>
		<edge from-layer="3298" from-port="2" to-layer="3308" to-port="0"/>
		<edge from-layer="3307" from-port="0" to-layer="3308" to-port="1"/>
		<edge from-layer="3304" from-port="5" to-layer="3312" to-port="0"/>
		<edge from-layer="3309" from-port="0" to-layer="3312" to-port="1"/>
		<edge from-layer="3310" from-port="0" to-layer="3312" to-port="2"/>
		<edge from-layer="3311" from-port="0" to-layer="3312" to-port="3"/>
		<edge from-layer="3312" from-port="4" to-layer="3314" to-port="0"/>
		<edge from-layer="3313" from-port="0" to-layer="3314" to-port="1"/>
		<edge from-layer="3314" from-port="2" to-layer="3315" to-port="0"/>
		<edge from-layer="3315" from-port="1" to-layer="3316" to-port="0"/>
		<edge from-layer="3308" from-port="2" to-layer="3318" to-port="0"/>
		<edge from-layer="3316" from-port="1" to-layer="3318" to-port="1"/>
		<edge from-layer="3317" from-port="0" to-layer="3318" to-port="2"/>
		<edge from-layer="3318" from-port="3" to-layer="3319" to-port="0"/>
		<edge from-layer="3319" from-port="1" to-layer="3321" to-port="0"/>
		<edge from-layer="3320" from-port="0" to-layer="3321" to-port="1"/>
		<edge from-layer="3321" from-port="2" to-layer="3323" to-port="0"/>
		<edge from-layer="3322" from-port="0" to-layer="3323" to-port="1"/>
		<edge from-layer="3323" from-port="2" to-layer="3324" to-port="0"/>
		<edge from-layer="3318" from-port="3" to-layer="3325" to-port="0"/>
		<edge from-layer="3324" from-port="1" to-layer="3325" to-port="1"/>
		<edge from-layer="3325" from-port="3" to-layer="3327" to-port="0"/>
		<edge from-layer="3314" from-port="2" to-layer="3329" to-port="0"/>
		<edge from-layer="3327" from-port="1" to-layer="3329" to-port="1"/>
		<edge from-layer="3328" from-port="0" to-layer="3329" to-port="2"/>
		<edge from-layer="3329" from-port="3" to-layer="3330" to-port="0"/>
		<edge from-layer="3330" from-port="1" to-layer="3331" to-port="0"/>
		<edge from-layer="3258" from-port="2" to-layer="3333" to-port="0"/>
		<edge from-layer="3331" from-port="1" to-layer="3333" to-port="1"/>
		<edge from-layer="3332" from-port="0" to-layer="3333" to-port="2"/>
		<edge from-layer="3329" from-port="3" to-layer="3334" to-port="0"/>
		<edge from-layer="3334" from-port="1" to-layer="3335" to-port="0"/>
		<edge from-layer="3286" from-port="2" to-layer="3337" to-port="0"/>
		<edge from-layer="3335" from-port="1" to-layer="3337" to-port="1"/>
		<edge from-layer="3336" from-port="0" to-layer="3337" to-port="2"/>
		<edge from-layer="3337" from-port="3" to-layer="3341" to-port="0"/>
		<edge from-layer="3338" from-port="0" to-layer="3341" to-port="1"/>
		<edge from-layer="3339" from-port="0" to-layer="3341" to-port="2"/>
		<edge from-layer="3340" from-port="0" to-layer="3341" to-port="3"/>
		<edge from-layer="3341" from-port="4" to-layer="3343" to-port="0"/>
		<edge from-layer="3342" from-port="0" to-layer="3343" to-port="1"/>
		<edge from-layer="3343" from-port="2" to-layer="3345" to-port="0"/>
		<edge from-layer="3344" from-port="0" to-layer="3345" to-port="1"/>
		<edge from-layer="3333" from-port="3" to-layer="3346" to-port="0"/>
		<edge from-layer="3345" from-port="2" to-layer="3346" to-port="1"/>
		<edge from-layer="3329" from-port="3" to-layer="3347" to-port="0"/>
		<edge from-layer="3347" from-port="1" to-layer="3348" to-port="0"/>
		<edge from-layer="3271" from-port="2" to-layer="3350" to-port="0"/>
		<edge from-layer="3348" from-port="1" to-layer="3350" to-port="1"/>
		<edge from-layer="3349" from-port="0" to-layer="3350" to-port="2"/>
		<edge from-layer="3350" from-port="3" to-layer="3351" to-port="0"/>
		<edge from-layer="3351" from-port="1" to-layer="3353" to-port="0"/>
		<edge from-layer="3352" from-port="0" to-layer="3353" to-port="1"/>
		<edge from-layer="3346" from-port="2" to-layer="3354" to-port="0"/>
		<edge from-layer="3353" from-port="2" to-layer="3354" to-port="1"/>
		<edge from-layer="3354" from-port="2" to-layer="3358" to-port="0"/>
		<edge from-layer="3355" from-port="0" to-layer="3358" to-port="1"/>
		<edge from-layer="3356" from-port="0" to-layer="3358" to-port="2"/>
		<edge from-layer="3357" from-port="0" to-layer="3358" to-port="3"/>
		<edge from-layer="3354" from-port="2" to-layer="3362" to-port="0"/>
		<edge from-layer="3360" from-port="0" to-layer="3362" to-port="1"/>
		<edge from-layer="3361" from-port="0" to-layer="3362" to-port="2"/>
		<edge from-layer="3362" from-port="3" to-layer="3363" to-port="0"/>
		<edge from-layer="3363" from-port="1" to-layer="3365" to-port="0"/>
		<edge from-layer="3364" from-port="0" to-layer="3365" to-port="1"/>
		<edge from-layer="3358" from-port="4" to-layer="3359" to-port="0"/>
		<edge from-layer="3365" from-port="2" to-layer="3366" to-port="0"/>
	</edges>
	<meta_data>
		<MO_version value="custom_HEAD_0e242b324458ed332f0907ac6d88fc24b610d9b9"/>
		<Runtime_version value="2022.3.0-000-0e242b32445-HEAD"/>
		<legacy_path value="True"/>
		<cli_parameters>
			<caffe_parser_path value="DIR"/>
			<data_type value="FP16"/>
			<disable_nhwc_to_nchw value="False"/>
			<disable_omitting_optional value="False"/>
			<disable_resnet_optimization value="False"/>
			<disable_weights_compression value="False"/>
			<enable_concat_optimization value="False"/>
			<enable_flattening_nested_params value="False"/>
			<enable_ssd_gluoncv value="False"/>
			<extensions value="['/opt/home/sys_k8sworker/workspace/DL-Benchmark/try/convert']"/>
			<framework value="onnx"/>
			<input value="image"/>
			<input_model value="DIR/model.onnx"/>
			<input_model_is_text value="False"/>
			<input_shape value="[1,3,416,416]"/>
			<k value="DIR/CustomLayersMapping.xml"/>
			<layout value="image(nchw)"/>
			<legacy_mxnet_model value="False"/>
			<log_level value="ERROR"/>
			<mean_values value="()"/>
			<model_name value="face-detection-0205"/>
			<output value="boxes,labels"/>
			<output_dir value="DIR"/>
			<progress value="False"/>
			<remove_memory value="False"/>
			<remove_output_softmax value="False"/>
			<reverse_input_channels value="True"/>
			<save_params_from_nd value="False"/>
			<scale_values value="image[255.0]"/>
			<silent value="True"/>
			<source_layout value="()"/>
			<static_shape value="False"/>
			<stream_output value="False"/>
			<target_layout value="()"/>
			<transform value=""/>
			<use_legacy_frontend value="False"/>
			<use_new_frontend value="False"/>
			<unset unset_cli_parameters="batch, counts, disable_fusing, finegrain_fusing, freeze_placeholder_with_value, input_checkpoint, input_meta_graph, input_proto, input_symbol, mean_file, mean_file_offsets, nd_prefix_name, pretrained_model_name, saved_model_dir, saved_model_tags, scale, tensorboard_logdir, tensorflow_custom_layer_libraries, tensorflow_custom_operations_config_update, tensorflow_object_detection_api_pipeline_config, tensorflow_use_custom_operations_config, transformations_config"/>
		</cli_parameters>
	</meta_data>
	<quantization_parameters>
		<config>{
		'compression': {
			'algorithms': [
				{
					'name': 'DefaultQuantization',
					'params': {
						'num_samples_for_tuning': 2000,
						'preset': 'performance',
						'stat_subset_size': 300,
						'use_layerwise_tuning': false
					}
				}
			],
			'dump_intermediate_model': true,
			'target_device': 'ANY'
		},
		'engine': {
			'models': [
				{
					'name': 'face-detection-0205',
					'launchers': [
						{
							'framework': 'openvino',
							'adapter': {
								'type': 'class_agnostic_detection',
								'scale': 0.00240384615
							},
							'device': 'cpu'
						}
					],
					'datasets': [
						{
							'name': 'wider',
							'data_source': 'PATH',
							'annotation_conversion': {
								'converter': 'wider',
								'annotation_file': 'PATH'
							},
							'annotation': 'PATH',
							'dataset_meta': 'PATH',
							'preprocessing': [
								{
									'type': 'resize',
									'size': 416
								}
							],
							'postprocessing': [
								{
									'type': 'resize_prediction_boxes'
								},
								{
									'type': 'cast_to_int'
								},
								{
									'type': 'clip_boxes',
									'size': 1024,
									'apply_to': 'annotation'
								},
								{
									'type': 'filter',
									'apply_to': 'annotation',
									'height_range': '64, 1024',
									'is_empty': true
								}
							],
							'metrics': [
								{
									'type': 'map',
									'ignore_difficult': true,
									'include_boundaries': false,
									'allow_multiple_matches_per_ignored': true,
									'distinct_conf': false,
									'reference': 0.9357
								}
							],
							'_command_line_mapping': {
								'annotation_file': 'PATH'
							}
						}
					]
				}
			],
			'stat_requests_number': null,
			'eval_requests_number': null,
			'type': 'accuracy_checker'
		}
	}</config>
		<version value="invalid version"/>
		<cli_params value="{'quantize': None, 'preset': None, 'model': None, 'weights': None, 'name': None, 'engine': None, 'ac_config': None, 'max_drop': None, 'evaluate': False, 'output_dir': 'PATH', 'direct_dump': True, 'log_level': 'INFO', 'pbar': False, 'stream_output': False, 'keep_uncompressed_weights': False, 'data_source': None}"/>
	</quantization_parameters>
</net>
